…
ng rate). The model is trained for 2000 epochs (epoch: the number of times a learning algorithm sees the complete dataset). import torch.optim as optim optimizer = optim.Adam(model.parameters()) criterion = nn.MSELoss() loss_history = [] n_epochs = 2000 for epoch in range(n_epochs): model.train() for X_batch, y_batch in train_loader: y_pred = model(X_batch) loss = criterion(y_pred, y_batch) optimizer.zero_grad() loss.backward() optimizer.step() loss_history.append(loss.item()) if epoch % 100 == 1: print(&quot;Loss:&quot;, loss.item()) ## SimpleRNN( ## (rnn): RNN(1, 20, batch_first=True) ## (fc): Linear(in_features=20, out_features=1, bias=True) ## ) ## SimpleRNN( ## (rnn): RNN(1, 20, batch_first=True) ## (fc): Linear(in_features=20, out_features=1, bias=True) ## ) ## Loss: 44251.92578125 ## SimpleRNN( ## (rnn): RNN(1, 20, batch_first=True) ## (fc): Linear(in_features=20, out_features=1, bias=True) ## ) ## SimpleRNN( ## (rnn): RNN(1, 20, batch_first=True) ## (fc): Linear(in_features=20, out_features=1, bias=True) ## ) ## SimpleRNN( ## (rnn): RNN(1, 20, batch_first=True) ## (fc): Linear(in_features=20, out_features=1, bias=True) ## ) ## SimpleRNN( ## (rnn): RNN(1, 20, batch_first=True) ## (fc): Linear(in_features=20, out_features=1, bias=True) ## ) ## SimpleRNN( ## (rnn): RNN(1, 20, batch_first=True) ## (fc): Linear(in_features=20, out_features=1, bias=True) ## ) ## SimpleRNN( ## (rnn): RNN(1, 20, batch_first=True) ## (fc): Linear(in_features=20, out_features=1, bias=True) ## ) ## SimpleRNN( ## (rnn): RNN(1, 20, batch_first=True) ## (fc): Linear(in_features=20, out_features=1, bias=True) ## ) ## SimpleRNN( ## (rnn): RNN(1, 20, batch_first=True) ## (fc): Linear(in_features=20, out_features=1, bias=True) ## ) ## SimpleRNN( ## (rnn): RNN(1, 20, batch_first=True) ## (fc): Linear(in_features=20, out_features=1, bias=True) ## ) ## SimpleRNN( ## (rnn): RNN(1, 20, batch_first=True) ## (fc): Linear(in_features=20, out_features=1, bias=True) ## ) ## SimpleRNN( ## (rnn): RNN(1, 20, batch_first=True) ## (fc): Linear(in_features=20, out_features=1, bias=True) ## ) ## SimpleRNN( ## (rnn): RNN(1, 20, batch_first=True) ## (fc): Linear(in_features=20, out_features=1, bias=True) ## ) ## SimpleRNN( ## (rnn): RNN(1, 20, batch_first=True) ## (fc): Linear(in_features=20, out_features=1, bias=True) ## ) ## SimpleRNN( ## (rnn): RNN(1, 20, batch_first=True) ## (fc): Linear(in_features=20, out_features=1, bias=True) ## ) ## SimpleRNN( ## (rnn): RNN(1, 20, batch_first=True) ## (fc): Linear(in_features=20, out_features=1, bias=True) ## ) ## SimpleRNN( ## (rnn): RNN(1, 20, batch_first=True) ## (fc): Linear(in_features=20, out_features=1, bias=True) ## ) ## SimpleRNN( ## (rnn): RNN(1, 20, batch_first=True) ## (fc): Linear(in_features=20, out_features=1, bias=True) ## ) ## SimpleRNN( ## (rnn): RNN(1, 20, batch_first=True) ## (fc): Linear(in_features=20, out_features=1, bias=True) ## ) ## SimpleRNN( ## (rnn): RNN(1, 20, batch_first=True) ## (fc): Linear(in_features=20, out_features=1, bias=True) ## ) ## SimpleRNN( ## (rnn): RNN(1, 20, batch_first=True) ## (fc): Linear(in_features=20, out_features=1, bias=True) ## ) ## SimpleRNN( ## (rnn): RNN(1, 20, batch_first=True) ## (fc): Linear(in_features=20, out_features=1, bias=True) ## ) ## SimpleRNN( ## (rnn): RNN(1, 20, batch_first=True) ## (fc): Linear(in_features=20, out_features=1, bias=True) ## ) ## SimpleRNN( ## (rnn): RNN(1, 20, batch_first=True) ## (fc): Linear(in_features=20, out_features=1, bias=True) ## ) ## SimpleRNN( ## (rnn): RNN(1, 20, batch_first=True) ## (fc): Linear(in_features=20, out_features=1, bias=True) ## ) ## SimpleRNN( ## (rnn): RNN(1, 20, batch_first=True) ## (fc): Linear(in_features=20, out_features=1, bias=True) ## ) ## SimpleRNN( ## (rnn): RNN(1, 20, batch_first=True) ## (fc): Linear(in_features=20, out_features=1, bias=True) ## ) ## SimpleRNN( ## (rnn): RNN(1, 20, batch_first=True) ## (fc): Linear(in_features=20, out_features=1, bias=True) ## ) ## SimpleRNN( ## (rnn): RNN(1, 20, batch_first=True) ## (fc): Linear(in_features=20, out_features=1, bias=True) ## ) ## SimpleRNN( ## (rnn): RNN(1, 20, batch_first=True) ## (fc): Linear(in_features=20, out_features=1, bias=True) ## ) ## SimpleRNN( ## (rnn): RNN(1, 20, batch_first=True) ## (fc): Linear(in_features=20, out_features=1, bias=True) ## ) ## SimpleRNN( ## (rnn): RNN(1, 20, batch_first=True) ## (fc): Linear(in_features=20, out_features=1, bias=True) ## ) ## SimpleRNN( ## (rnn): RNN(1, 20, batch_first=True) ## (fc): Linear(in_features=20, out_features=1, bias=True) ## ) ## SimpleRNN( ## (rnn): RNN(1, 20, batch_first=True) ## (fc): Linear(in_features=20, out_features=1, bias=True) ## ) ## SimpleRNN( ## (rnn): RNN(1, 20, batch_first=True) ## (fc): Linear(in_features=20, out_features=1, bias=True) ## ) ## SimpleRNN( ## (rnn): RNN(1, 20, batch_first=True) ## (fc): Linear(in_features=20, out_features=1, bias=True) ## ) ## SimpleRNN( ## (rnn): RNN(1, 20, batch_first=True) ## (fc): Linear(in_features=20, out_features=1, bias=True) ## ) ## SimpleRNN( ## (rnn): RNN(1, 20, batch_first=True) ## (fc): Linear(in_features=20, out_features=1, bias=True) ## ) ## SimpleRNN( ## (rnn): RNN(1, 20, batch_first=True) ## (fc): Linear(in_features=20, out_features=1, bias=True) ## ) ## SimpleRNN( ## (rnn): RNN(1, 20, batch_first=True) ## (fc): Linear(in_features=20, out_features=1, bias=True) ## ) ## SimpleRNN( ## (rnn): RNN(1, 20, batch_first=True) ## (fc): Linear(in_features=20, out_features=1, bias=True) ## ) ## SimpleRNN( ## (rnn): RNN(1, 20, batch_first=True) ## (fc): Linear(in_features=20, out_features=1, bias=True) ## ) ## SimpleRNN( ## (rnn): RNN(1, 20, batch_first=True) ## (fc): Linear(in_features=20, out_features=1, bias=True) ## ) ## SimpleRNN( ## (rnn): RNN(1, 20, batch_first=True) ## (fc): Linear(in_features=20, out_features=1, bias=True) ## ) ## SimpleRNN( ## (rnn): RNN(1, 20, batch_first=True) ## (fc): Linear(in_features=20, out_features=1, bias=True) ## ) ## SimpleRNN( ## (rnn): RNN(1, 20, batch_first=True) ## (fc): Linear(in_features=20, out_features=1, bias=True) ## ) ## SimpleRNN( ## (rnn): RNN(1, 20, batch_first=True) ## (fc): Linear(in_features=20, out_features=1, bias=True) ## ) ## SimpleRNN( ## (rnn): RNN(1, 20, batch_first=True) ## (fc): Linear(in_features=20, out_features=1, bias=True) ## ) ## SimpleRNN( ## (rnn): RNN(1, 20, batch_first=True) ## (fc): Linear(in_features=20, out_features=1, bias=True) ## ) ## SimpleRNN( ## (rnn): RNN(1, 20, batch_first=True) ## (fc): Linear(in_features=20, out_features=1, bias=True) ## ) ## SimpleRNN( ## (rnn): RNN(1, 20, batch_first=True) ## (fc): Linear(in_features=20, out_features=1, bias=True) ## ) ## SimpleRNN( ## (rnn): RNN(1, 20, batch_first=True) ## (fc): Linear(in_features=20, out_features=1, bias=True) ## ) ## SimpleRNN( ## (rnn): RNN(1, 20, batch_first=True) ## (fc): Linear(in_features=20, out_features=1, bias=True) ## ) ## SimpleRNN( ## (rnn): RNN(1, 20, batch_first=True) ## (fc): Linear(in_features=20, out_features=1, bias=True) ## ) ## SimpleRNN( ## (rnn): RNN(1, 20, batch_first=True) ## (fc): Linear(in_features=20, out_features=1, bias=True) ## ) ## SimpleRNN( ## (rnn): RNN(1, 20, batch_first=True) ## (fc): Linear(in_features=20, out_features=1, bias=True) ## ) ## SimpleRNN( ## (rnn): RNN(1, 20, batch_first=True) ## (fc): Linear(in_features=20, out_features=1, bias=True) ## ) ## SimpleRNN( ## (rnn): RNN(1, 20, batch_first=True) ## (fc): Linear(in_features=20, out_features=1, bias=True) ## ) ## SimpleRNN( ## (rnn): RNN(1, 20, batch_first=True) ## (fc): Linear(in_features=20, out_features=1, bias=True) ## ) ## SimpleRNN( ## (rnn): RNN(1, 20, batch_first=True) ## (fc): Linear(in_features=20, out_features=1, bias=True) ## ) ## SimpleRNN( ## (rnn): RNN(1, 20, batch_first=True) ## (fc): Linear(in_features=20, out_features=1, bias=True) ## ) ## SimpleRNN( ## (rnn): RNN(1, 20, batch_first=True) ## (fc): Linear(in_features=20, out_features=1, bias=True) ## ) ## SimpleRNN( ## (rnn): RNN(1, 20, batch_first=True) ## (fc): Linear(in_features=20, out_features=1, bias=True) ## ) ## SimpleRNN( ## (rnn): RNN(1, 20, batch_first=True) ## (fc): Linear(in_features=20, out_features=1, bias=True) ## ) ## SimpleRNN( ## (rnn): RNN(1, 20, batch_first=True) ## (fc): Linear(in_features=20, out_features=1, bias=True) ## ) ## SimpleRNN( ## (rnn): RNN(1, 20, batch_first=True) ## (fc): Linear(in_features=20, out_features=1, bias=True) ## ) ## SimpleRNN( ## (rnn): RNN(1, 20, batch_first=True) ## (fc): Linear(in_features=20, out_features=1, bias=True) ## ) ## SimpleRNN( ## (rnn): RNN(1, 20, batch_first=True) ## (fc): Linear(in_features=20, out_features=1, bias=True) ## ) ## SimpleRNN( ## (rnn): RNN(1, 20, batch_first=True) ## (fc): Linear(in_features=20, out_features=1, bias=True) ## ) ## SimpleRNN( ## (rnn): RNN(1, 20, batch_first=True) ## (fc): Linear(in_features=20, out_features=1, bias=True) ## ) ## SimpleRNN( ## (rnn): RNN(1, 20, batch_first=True) ## (fc): Linear(in_features=20, out_features=1, bias=True) ## ) ## SimpleRNN( ## (rnn): RNN(1, 20, batch_first=True) ## (fc): Linear(in_features=20, out_features=1, bias=True) ## ) ## SimpleRNN( ## (rnn): RNN(1, 20, batch_first=True) ## (fc): Linear(in_features=20, out_features=1, bias=True) ## ) ## SimpleRNN( ## (rnn): RNN(1, 20, batch_first=True) ## (fc): Linear(in_features=20, out_features=1, bias=True) ## ) ## SimpleRNN( ## (rnn): RNN(1, 20, batch_first=True) ## (fc): Linear(in_features=20, out_features=1, bias=True) ## ) ## SimpleRNN( ## (rnn): RNN(1, 20, batch_first=True) ## (fc): Linear(in_features=20, out_features=1, bias=True) ## ) ## SimpleRNN( ## (rnn): RNN(1, 20, batch_first=True) ## (fc): Linear(in_features=20, out_features=1, bias=True) ## ) ## SimpleRNN( ## (rnn): RNN(1, 20, batch_first=True) ## (fc): Linear(in_features=20, out_features=1, bias=True) ## ) ## SimpleRNN( ## (rnn): RNN(1, 20, batch_first=True) ## (fc): Linear(in_features=20, out_features=1, bias=True) ## ) ## SimpleRNN( ## (rnn): RNN(1, 20, batch_first=True) ## (fc): Linear(in_features=20, out_features=1, bias=True) ## ) ## SimpleRNN( ## (rnn): RNN(1, 20, batch_first=True) ## (fc): Linear(in_features=20, out_features=1, bias=True) ## ) ## SimpleRNN( ## (rnn): RNN(1, 20, batch_first=True) ## (fc): Linear(in_features=20, out_features=1, bias=True) ## ) ## SimpleRNN( ## (rnn): RNN(1, 20, batch_first=True) ## (fc): Linear(in_features=20, out_features=1, bias=True) ## ) ## SimpleRNN( ## (rnn): RNN(1, 20, batch_first=True) ## (fc): Linear(in_features=20, out_features=1, bias=True) ## ) ## SimpleRNN( ## (rnn): RNN(1, 20, batch_first=True) ## (fc): Linear(in_features=20, out_features=1, bias=True) ## ) ## SimpleRNN( ## (rnn): RNN(1, 20, batch_first=True) ## (fc): Linear(in_features=20, out_features=1, bias=True) ## ) ## SimpleRNN( ## (rnn): RNN(1, 20, batch_first=True) ## (fc): Linear(in_features=20, out_features=1, bias=True) ## ) ## SimpleRNN( ## (rnn): RNN(1, 20, batch_first=True) ## (fc): Linear(in_features=20, out_features=1, bias=True) ## ) ## SimpleRNN( ## (rnn): RNN(1, 20, batch_first=True) ## (fc): Linear(in_features=20, out_features=1, bias=True) ## ) ## SimpleRNN( ## (rnn): RNN(1, 20, batch_first=True) ## (fc): Linear(in_features=20, out_features=1, bias=True) ## ) ## SimpleRNN( ## (rnn): RNN(1, 20, batch_first=True) ## (fc): Linear(in_features=20, out_features=1, bias=True) ## ) ## SimpleRNN( ## (rnn): RNN(1, 20, batch_first=True) ## (fc): Linear(in_features=20, out_features=1, bias=True) ## ) ## SimpleRNN( ## (rnn): RNN(1, 20, batch_first=True) ## (fc): Linear(in_features=20, out_features=1, bias=True) ## ) ## SimpleRNN( ## (rnn): RNN(1, 20, batch_first=True) ## (fc): Linear(in_features=20, out_features=1, bias=True) ## ) ## SimpleRNN( ## (rnn): RNN(1, 20, batch_first=True) ## (fc): Linear(in_features=20, out_features=1, bias=True) ## ) ## SimpleRNN( ## (rnn): RNN(1, 20, batch_first=True) ## (fc): Linear(in_features=20, out_features=1, bias=True) ## ) ## SimpleRNN( ## (rnn): RNN(1, 20, batch_first=True) ## (fc): Linear(in_features=20, out_features=1, bias=True) ## ) ## SimpleRNN( ## (rnn): RNN(1, 20, batch_first=True) ## (fc): Linear(in_features=20, out_features=1, bias=True) ## ) ## SimpleRNN( ## (rnn): RNN(1, 20, batch_first=True) ## (fc): Linear(in_features=20, out_features=1, bias=True) ## ) ## SimpleRNN( ## (rnn): RNN(1, 20, batch_first=True) ## (fc): Linear(in_features=20, out_features=1, bias=True) ## ) ## SimpleRNN( ## (rnn): RNN(1, 20, batch_first=True) ## (fc): Linear(in_features=20, out_features=1, bias=True) ## ) ## Loss: 47542.390625 ## SimpleRNN( ## (rnn): RNN(1, 20, batch_first=True) ## (fc): Linear(in_features=20, out_features=1, bias=True) ## ) ## SimpleRNN( ## (rnn): RNN(1, 20, batch_first=True) ## (fc): Linear(in_features=20, out_features=1, bias=True) ## ) ## SimpleRNN( ## (rnn): RNN(1, 20, batch_first=True) ## (fc): Linear(in_features=20, out_features=1, bias=True) ## ) ## SimpleRNN( ## (rnn): RNN(1, 20, batch_first=True) ## (fc): Linear(in_features=20, out_features=1, bias=True) ## ) ## SimpleRNN( ## (rnn): RNN(1, 20, batch_first=True) ## (fc): Linear(in_features=20, out_features=1, bias=True) ## ) ## SimpleRNN( ## (rnn): RNN(1, 20, batch_first=True) ## (fc): Linear(in_features=20, out_features=1, bias=True) ## ) ## SimpleRNN( ## (rnn): RNN(1, 20, batch_first=True) ## (fc): Linear(in_features=20, out_features=1, bias=True) ## ) ## SimpleRNN( ## (rnn): RNN(1, 20, batch_first=True) ## (fc): Linear(in_features=20, out_features=1, bias=True) ## ) ## SimpleRNN( ## (rnn): RNN(1, 20, batch_first=True) ## (fc): Linear(in_features=20, out_features=1, bias=True) ## ) ## SimpleRNN( ## (rnn): RNN(1, 20, batch_first=True) ## (fc): Linear(in_features=20, out_features=1, bias=True) ## ) ## SimpleRNN( ## (rnn): RNN(1, 20, batch_first=True) ## (fc): Linear(in_features=20, out_features=1, bias=True) ## ) ## SimpleRNN( ## (rnn): RNN(1, 20, batch_first=True) ## (fc): Linear(in_features=20, out_features=1, bias=True) ## ) ## SimpleRNN( ## (rnn): RNN(1, 20, batch_first=True) ## (fc): Linear(in_features=20, out_features=1, bias=True) ## ) ## SimpleRNN( ## (rnn): RNN(1, 20, batch_first=True) ## (fc): Linear(in_features=20, out_features=1, bias=True) ## ) ## SimpleRNN( ## (rnn): RNN(1, 20, batch_first=True) ## (fc): Linear(in_features=20, out_features=1, bias=True) ## ) ## SimpleRNN( ## (rnn): RNN(1, 20, batch_first=True) ## (fc): Linear(in_features=20, out_features=1, bias=True) ## ) ## SimpleRNN( ## (rnn): RNN(1, 20, batch_first=True) ## (fc): Linear(in_features=20, out_features=1, bias=True) ## ) ## SimpleRNN( ## (rnn): RNN(1, 20, batch_first=True) ## (fc): Linear(in_features=20, out_features=1, bias=True) ## ) ## SimpleRNN( ## (rnn): RNN(1, 20, batch_first=True) ## (fc): Linear(in_features=20, out_features=1, bias=True) ## ) ## SimpleRNN( ## (rnn): RNN(1, 20, batch_first=True) ## (fc): Linear(in_features=20, out_features=1, bias=True) ## ) ## SimpleRNN( ## (rnn): RNN(1, 20, batch_first=True) ## (fc): Linear(in_features=20, out_features=1, bias=True) ## ) ## SimpleRNN( ## (rnn): RNN(1, 20, batch_first=True) ## (fc): Linear(in_features=20, out_features=1, bias=True) ## ) ## SimpleRNN( ## (rnn): RNN(1, 20, batch_first=True) ## (fc): Linear(in_features=20, out_features=1, bias=True) ## ) ## SimpleRNN( ## (rnn): RNN(1, 20, batch_first=True) ## (fc): Linear(in_features=20, out_features=1, bias=True) ## ) ## SimpleRNN( ## (rnn): RNN(1, 20, batch_first=True) ## (fc): Linear(in_features=20, out_features=1, bias=True) ## ) ## SimpleRNN( ## (rnn): RNN(1, 20, batch_first=True) ## (fc): Linear(in_features=20, out_features=1, bias=True) ## ) ## SimpleRNN( ## (rnn): RNN(1, 20, batch_first=True) ## (fc): Linear(in_features=20, out_features=1, bias=True) ## ) ## SimpleRNN( ## (rnn): RNN(1, 20, batch_first=True) ## (fc): Linear(in_features=20, out_features=1, bias=True) ## ) ## SimpleRNN( ## (rnn): RNN(1, 20, batch_first=True) ## (fc): Linear(in_features=20, out_features=1, bias=True) ## ) ## SimpleRNN( ## (rnn): RNN(1, 20, batch_first=True) ## (fc): Linear(in_features=20, out_features=1, bias=True) ## ) ## SimpleRNN( ## (rnn): RNN(1, 20, batch_first=True) ## (fc): Linear(in_features=20, out_features=1, bias=True) ## ) ## SimpleRNN( ## (rnn): RNN(1, 20, batch_first=True) ## (fc): Linear(in_features=20, out_features=1, bias=True) ## ) ## SimpleRNN( ## (rnn): RNN(1, 20, batch_first=True) ## (fc): Linear(in_features=20, out_features=1, bias=True) ## ) ## SimpleRNN( ## (rnn): RNN(1, 20, batch_first=True) ## (fc): Linear(in_features=20, out_features=1, bias=True) ## ) ## SimpleRNN( ## (rnn): RNN(1, 20, batch_first=True) ## (fc): Linear(in_features=20, out_features=1, bias=True) ## ) ## SimpleRNN( ## (rnn): RNN(1, 20, batch_first=True) ## (fc): Linear(in_features=20, out_features=1, bias=True) ## ) ## SimpleRNN( ## (rnn): RNN(1, 20, batch_first=True) ## (fc): Linear(in_features=20, out_features=1, bias=True) ## ) ## SimpleRNN( ## (rnn): RNN(1, 20, batch_first=True) ## (fc): Linear(in_features=20, out_features=1, bias=True) ## ) ## SimpleRNN( ## (rnn): RNN(1, 20, batch_first=True) ## (fc): Linear(in_features=20, out_features=1, bias=True) ## ) ## SimpleRNN( ## (rnn): RNN(1, 20, batch_first=True) ## (fc): Linear(in_features=20, out_features=1, bias=True) ## ) ## SimpleRNN( ## (rnn): RNN(1, 20, batch_first=True) ## (fc): Linear(in_features=20, out_features=1, bias=True) ## ) ## SimpleRNN( ## (rnn): RNN(1, 20, batch_first=True) ## (fc): Linear(in_features=20, out_features=1, bias=True) ## ) ## SimpleRNN( ## (rnn): RNN(1, 20, batch_first=True) ## (fc): Linear(in_features=20, out_features=1, bias=True) ## ) ## SimpleRNN( ## (rnn): RNN(1, 20, batch_first=True) ## (fc): Linear(in_features=20, out_features=1, bias=True) ## ) ## SimpleRNN( ## (rnn): RNN(1, 20, batch_first=True) ## (fc): Linear(in_features=20, out_features=1, bias=True) ## ) ## SimpleRNN( ## (rnn): RNN(1, 20, batch_first=True) ## (fc): Linear(in_features=20, out_features=1, bias=True) ## ) ## SimpleRNN( ## (rnn): RNN(1, 20, batch_first=True) ## (fc): Linear(in_features=20, out_features=1, bias=True) ## ) ## SimpleRNN( ## (rnn): RNN(1, 20, batch_first=True) ## (fc): Linear(in_features=20, out_features=1, bias=True) ## ) ## SimpleRNN( ## (rnn): RNN(1, 20, batch_first=True) ## (fc): Linear(in_features=20, out_features=1, bias=True) ## ) ## SimpleRNN( ## (rnn): RNN(1, 20, batch_first=True) ## (fc): Linear(in_features=20, out_features=1, bias=True) ## ) ## SimpleRNN( ## (rnn): RNN(1, 20, batch_first=True) ## (fc): Linear(in_features=20, out_features=1, bias=True) ## ) ## SimpleRNN( ## (rnn): RNN(1, 20, batch_first=True) ## (fc): Linear(in_features=20, out_features=1, bias=True) ## ) ## SimpleRNN( ## (rnn): RNN(1, 20, batch_first=True) ## (fc): Linear(in_features=20, out_features=1, bias=True) ## ) ## SimpleRNN( ## (rnn): RNN(1, 20, batch_first=True) ## (fc): Linear(in_features=20, out_features=1, bias=True) ## ) ## SimpleRNN( ## (rnn): RNN(1, 20, batch_first=True) ## (fc): Linear(in_features=20, out_features=1, bias=True) ## ) ## SimpleRNN( ## (rnn): RNN(1, 20, batch_first=True) ## (fc): Linear(in_features=20, out_features=1, bias=True) ## ) ## SimpleRNN( ## (rnn): RNN(1, 20, batch_first=True) ## (fc): Linear(in_features=20, out_features=1, bias=True) ## ) ## SimpleRNN( ## (rnn): RNN(1, 20, batch_first=True) ## (fc): Linear(in_features=20, out_features=1, bias=True) ## ) ## SimpleRNN( ## (rnn): RNN(1, 20, batch_first=True) ## (fc): Linear(in_features=20, out_features=1, bias=True) ## ) ## SimpleRNN( ## (rnn): RNN(1, 20, batch_first=True) ## (fc): Linear(in_features=20, out_features=1, bias=True) ## ) ## SimpleRNN( ## (rnn): RNN(1, 20, batch_first=True) ## (fc): Linear(in_features=20, out_features=1, bias=True) ## ) ## SimpleRNN( ## (rnn): RNN(1, 20, batch_first=True) ## (fc): Linear(in_features=20, out_features=1, bias=True) ## ) ## SimpleRNN( ## (rnn): RNN(1, 20, batch_first=True) ## (fc): Linear(in_features=20, out_features=1, bias=True) ## ) ## SimpleRNN( ## (rnn): RNN(1, 20, batch_first=True) ## (fc): Linear(in_features=20, out_features=1, bias=True) ## ) ## SimpleRNN( ## (rnn): RNN(1, 20, batch_first=True) ## (fc): Linear(in_features=20, out_features=1, bias=True) ## ) ## SimpleRNN( ## (rnn): RNN(1, 20, batch_first=True) ## (fc): Linear(in_features=20, out_features=1, bias=True) ## ) ## SimpleRNN( ## (rnn): RNN(1, 20, batch_first=True) ## (fc): Linear(in_features=20, out_features=1, bias=True) ## ) ## SimpleRNN( ## (rnn): RNN(1, 20, batch_first=True) ## (fc): Linear(in_features=20, out_features=1, bias=True) ## ) ## SimpleRNN( ## (rnn): RNN(1, 20, batch_first=True) ## (fc): Linear(in_features=20, out_features=1, bias=True) ## ) ## SimpleRNN( ## (rnn): RNN(1, 20, batch_first=True) ## (fc): Linear(in_features=20, out_features=1, bias=True) ## ) ## SimpleRNN( ## (rnn): RNN(1, 20, batch_first=True) ## (fc): Linear(in_features=20, out_features=1, bias=True) ## ) ## SimpleRNN( ## (rnn): RNN(1, 20, batch_first=True) ## (fc): Linear(in_features=20, out_features=1, bias=True) ## ) ## SimpleRNN( ## (rnn): RNN(1, 20, batch_first=True) ## (fc): Linear(in_features=20, out_features=1, bias=True) ## ) ## SimpleRNN( ## (rnn): RNN(1, 20, batch_first=True) ## (fc): Linear(in_features=20, out_features=1, bias=True) ## ) ## SimpleRNN( ## (rnn): RNN(1, 20, batch_first=True) ## (fc): Linear(in_features=20, out_features=1, bias=True) ## ) ## SimpleRNN( ## (rnn): RNN(1, 20, batch_first=True) ## (fc): Linear(in_features=20, out_features=1, bias=True) ## ) ## SimpleRNN( ## (rnn): RNN(1, 20, batch_first=True) ## (fc): Linear(in_features=20, out_features=1, bias=True) ## ) ## SimpleRNN( ## (rnn): RNN(1, 20, batch_first=True) ## (fc): Linear(in_features=20, out_features=1, bias=True) ## ) ## SimpleRNN( ## (rnn): RNN(1, 20, batch_first=True) ## (fc): Linear(in_features=20, out_features=1, bias=True) ## ) ## SimpleRNN( ## (rnn): RNN(1, 20, batch_first=True) ## (fc): Linear(in_features=20, out_features=1, bias=True) ## ) ## SimpleRNN( ## (rnn): RNN(1, 20, batch_first=True) ## (fc): Linear(in_features=20, out_features=1, bias=True) ## ) ## SimpleRNN( ## (rnn): RNN(1, 20, batch_first=True) ## (fc): Linear(in_features=20, out_features=1, bias=True) ## ) ## SimpleRNN( ## (rnn): RNN(1, 20, batch_first=True) ## (fc): Linear(in_features=20, out_features=1, bias=True) ## ) ## SimpleRNN( ## (rnn): RNN(1, 20, batch_first=True) ## (fc): Linear(in_features=20, out_features=1, bias=True) ## ) ## SimpleRNN( ## (rnn): RNN(1, 20, batch_first=True) ## (fc): Linear(in_features=20, out_features=1, bias=True) ## ) ## SimpleRNN( ## (rnn): RNN(1, 20, batch_first=True) ## (fc): Linear(in_features=20, out_features=1, bias=True) ## ) ## SimpleRNN( ## (rnn): RNN(1, 20, batch_first=True) ## (fc): Linear(in_features=20, out_features=1, bias=True) ## ) ## SimpleRNN( ## (rnn): RNN(1, 20, batch_first=True) ## (fc): Linear(in_features=20, out_features=1, bias=True) ## ) ## SimpleRNN( ## (rnn): RNN(1, 20, batch_first=True) ## (fc): Linear(in_features=20, out_features=1, bias=True) ## ) ## SimpleRNN( ## (rnn): RNN(1, 20, batch_first=True) ## (fc): Linear(in_features=20, out_features=1, bias=True) ## ) ## SimpleRNN( ## (rnn): RNN(1, 20, batch_first=True) ## (fc): Linear(in_features=20, out_features=1, bias=True) ## ) ## SimpleRNN( ## (rnn): RNN(1, 20, batch_first=True) ## (fc): Linear(in_features=20, out_features=1, bias=True) ## ) ## SimpleRNN( ## (rnn): RNN(1, 20, batch_first=True) ## (fc): Linear(in_features=20, out_features=1, bias=True) ## ) ## SimpleRNN( ## (rnn): RNN(1, 20, batch_first=True) ## (fc): Linear(in_features=20, out_features=1, bias=True) ## ) ## SimpleRNN( ## (rnn): RNN(1, 20, batch_first=True) ## (fc): Linear(in_features=20, out_features=1, bias=True) ## ) ## SimpleRNN( ## (rnn): RNN(1, 20, batch_first=True) ## (fc): Linear(in_features=20, out_features=1, bias=True) ## ) ## SimpleRNN( ## (rnn): RNN(1, 20, batch_first=True) ## (fc): Linear(in_features=20, out_features=1, bias=True) ## ) ## SimpleRNN( ## (rnn): RNN(1, 20, batch_first=True) ## (fc): Linear(in_features=20, out_features=1, bias=True) ## ) ## SimpleRNN( ## (rnn): RNN(1, 20, batch_first=True) ## (fc): Linear(in_features=20, out_features=1, bias=True) ## ) ## SimpleRNN( ## (rnn): RNN(1, 20, batch_first=True) ## (fc): Linear(in_features=20, out_features=1, bias=True) ## ) ## Loss: 31380.623046875 ## SimpleRNN( ## (rnn): RNN(1, 20, batch_first=True) ## (fc): Linear(in_features=20, out_features=1, bias=True) ## ) ## SimpleRNN( ## (rnn): RNN(1, 20, batch_first=True) ## (fc): Linear(in_features=20, out_features=1, bias=True) ## ) ## SimpleRNN( ## (rnn): RNN(1, 20, batch_first=True) ## (fc): Linear(in_features=20, out_features=1, bias=True) ## ) ## SimpleRNN( ## (rnn): RNN(1, 20, batch_first=True) ## (fc): Linear(in_features=20, out_features=1, bias=True) ## ) ## SimpleRNN( ## (rnn): RNN(1, 20, batch_first=True) ## (fc): Linear(in_features=20, out_features=1, bias=True) ## ) ## SimpleRNN( ## (rnn): RNN(1, 20, batch_first=True) ## (fc): Linear(in_features=20, out_features=1, bias=True) ## ) ## SimpleRNN( ## (rnn): RNN(1, 20, batch_first=True) ## (fc): Linear(in_features=20, out_features=1, bias=True) ## ) ## SimpleRNN( ## (rnn): RNN(1, 20, batch_first=True) ## (fc): Linear(in_features=20, out_features=1, bias=True) ## ) ## SimpleRNN( ## (rnn): RNN(1, 20, batch_first=True) ## (fc): Linear(in_features=20, out_features=1, bias=True) ## ) ## SimpleRNN( ## (rnn): RNN(1, 20, batch_first=True) ## (fc): Linear(in_features=20, out_features=1, bias=True) ## ) ## SimpleRNN( ## (rnn): RNN(1, 20, batch_first=True) ## (fc): Linear(in_features=20, out_features=1, bias=True) ## ) ## SimpleRNN( ## (rnn): RNN(1, 20, batch_first=True) ## (fc): Linear(in_features=20, out_features=1, bias=True) ## ) ## SimpleRNN( ## (rnn): RNN(1, 20, batch_first=True) ## (fc): Linear(in_features=20, out_features=1, bias=True) ## ) ## SimpleRNN( ## (rnn): RNN(1, 20, batch_first=True) ## (fc): Linear(in_features=20, out_features=1, bias=True) ## ) ## SimpleRNN( ## (rnn): RNN(1, 20, batch_first=True) ## (fc): Linear(in_features=20, out_features=1, bias=True) ## ) ## SimpleRNN( ## (rnn): RNN(1, 20, batch_first=True) ## (fc): Linear(in_features=20, out_features=1, bias=True) ## ) ## SimpleRNN( ## (rnn): RNN(1, 20, batch_first=True) ## (fc): Linear(in_features=20, out_features=1, bias=True) ## ) ## SimpleRNN( ## (rnn): RNN(1, 20, batch_first=True) ## (fc): Linear(in_features=20, out_features=1, bias=True) ## ) ## SimpleRNN( ## (rnn): RNN(1, 20, batch_first=True) ## (fc): Linear(in_features=20, out_features=1, bias=True) ## ) ## SimpleRNN( ## (rnn): RNN(1, 20, batch_first=True) ## (fc): Linear(in_features=20, out_features=1, bias=True) ## ) ## SimpleRNN( ## (rnn): RNN(1, 20, batch_first=True) ## (fc): Linear(in_features=20, out_features=1, bias=True) ## ) ## SimpleRNN( ## (rnn): RNN(1, 20, batch_first=True) ## (fc): Linear(in_features=20, out_features=1, bias=True) ## ) ## SimpleRNN( ## (rnn): RNN(1, 20, batch_first=True) ## (fc): Linear(in_features=20, out_features=1, bias=True) ## ) ## SimpleRNN( ## (rnn): RNN(1, 20, batch_first=True) ## (fc): Linear(in_features=20, out_features=1, bias=True) ## ) ## SimpleRNN( ## (rnn): RNN(1, 20, batch_first=True) ## (fc): Linear(in_features=20, out_features=1, bias=True) ## ) ## SimpleRNN( ## (rnn): RNN(1, 20, batch_first=True) ## (fc): Linear(in_features=20, out_features=1, bias=True) ## ) ## SimpleRNN( ## (rnn): RNN(1, 20, batch_first=True) ## (fc): Linear(in_features=20, out_features=1, bias=True) ## ) ## SimpleRNN( ## (rnn): RNN(1, 20, batch_first=True) ## (fc): Linear(in_features=20, out_features=1, bias=True) ## ) ## SimpleRNN( ## (rnn): RNN(1, 20, batch_first=True) ## (fc): Linear(in_features=20, out_features=1, bias=True) ## ) ## SimpleRNN( ## (rnn): RNN(1, 20, batch_first=True) ## (fc): Linear(in_features=20, out_features=1, bias=True) ## ) ## SimpleRNN( ## (rnn): RNN(1, 20, batch_first=True) ## (fc): Linear(in_features=20, out_features=1, bias=True) ## ) ## SimpleRNN( ## (rnn): RNN(1, 20, batch_first=True) ## (fc): Linear(in_features=20, out_features=1, bias=True) ## ) ## SimpleRNN( ## (rnn): RNN(1, 20, batch_first=True) ## (fc): Linear(in_features=20, out_features=1, bias=True) ## ) ## SimpleRNN( ## (rnn): RNN(1, 20, batch_first=True) ## (fc): Linear(in_features=20, out_features=1, bias=True) ## ) ## SimpleRNN( ## (rnn): RNN(1, 20, batch_first=True) ## (fc): Linear(in_features=20, out_features=1, bias=True) ## ) ## SimpleRNN( ## (rnn): RNN(1, 20, batch_first=True) ## (fc): Linear(in_features=20, out_features=1, bias=True) ## ) ## SimpleRNN( ## (rnn): RNN(1, 20, batch_first=True) ## (fc): Linear(in_features=20, out_features=1, bias=True) ## ) ## SimpleRNN( ## (rnn): RNN(1, 20, batch_first=True) ## (fc): Linear(in_features=20, out_features=1, bias=True) ## ) ## SimpleRNN( ## (rnn): RNN(1, 20, batch_first=True) ## (fc): Linear(in_features=20, out_features=1, bias=True) ## ) ## SimpleRNN( ## (rnn): RNN(1, 20, batch_first=True) ## (fc): Linear(in_features=20, out_features=1, bias=True) ## ) ## SimpleRNN( ## (rnn): RNN(1, 20, batch_first=True) ## (fc): Linear(in_features=20, out_features=1, bias=True) ## ) ## SimpleRNN( ## (rnn): RNN(1, 20, batch_first=True) ## (fc): Linear(in_features=20, out_features=1, bias=True) ## ) ## SimpleRNN( ## (rnn): RNN(1, 20, batch_first=True) ## (fc): Linear(in_features=20, out_features=1, bias=True) ## ) ## SimpleRNN( ## (rnn): RNN(1, 20, batch_first=True) ## (fc): Linear(in_features=20, out_features=1, bias=True) ## ) ## SimpleRNN( ## (rnn): RNN(1, 20, batch_first=True) ## (fc): Linear(in_features=20, out_features=1, bias=True) ## ) ## SimpleRNN( ## (rnn): RNN(1, 20, batch_first=True) ## (fc): Linear(in_features=20, out_features=1, bias=True) ## ) ## SimpleRNN( ## (rnn): RNN(1, 20, batch_first=True) ## (fc): Linear(in_features=20, out_features=1, bias=True) ## ) ## SimpleRNN( ## (rnn): RNN(1, 20, batch_first=True) ## (fc): Linear(in_features=20, out_features=1, bias=True) ## ) ## SimpleRNN( ## (rnn): RNN(1, 20, batch_first=True) ## (fc): Linear(in_features=20, out_features=1, bias=True) ## ) ## SimpleRNN( ## (rnn): RNN(1, 20, batch_first=True) ## (fc): Linear(in_features=20, out_features=1, bias=True) ## ) ## SimpleRNN( ## (rnn): RNN(1, 20, batch_first=True) ## (fc): Linear(in_features=20, out_features=1, bias=True) ## ) ## SimpleRNN( ## (rnn): RNN(1, 20, batch_first=True) ## (fc): Linear(in_features=20, out_features=1, bias=True) ## ) ## SimpleRNN( ## (rnn): RNN(1, 20, batch_first=True) ## (fc): Linear(in_features=20, out_features=1, bias=True) ## ) ## SimpleRNN( ## (rnn): RNN(1, 20, batch_first=True) ## (fc): Linear(in_features=20, out_features=1, bias=True) ## ) ## SimpleRNN( ## (rnn): RNN(1, 20, batch_first=True) ## (fc): Linear(in_features=20, out_features=1, bias=True) ## ) ## SimpleRNN( ## (rnn): RNN(1, 20, batch_first=True) ## (fc): Linear(in_features=20, out_features=1, bias=True) ## ) ## SimpleRNN( ## (rnn): RNN(1, 20, batch_first=True) ## (fc): Linear(in_features=20, out_features=1, bias=True) ## ) ## SimpleRNN( ## (rnn): RNN(1, 20, batch_first=True) ## (fc): Linear(in_features=20, out_features=1, bias=True) ## ) ## SimpleRNN( ## (rnn): RNN(1, 20, batch_first=True) ## (fc): Linear(in_features=20, out_features=1, bias=True) ## ) ## SimpleRNN( ## (rnn): RNN(1, 20, batch_first=True) ## (fc): Linear(in_features=20, out_features=1, bias=True) ## ) ## SimpleRNN( ## (rnn): RNN(1, 20, batch_first=True) ## (fc): Linear(in_features=20, out_features=1, bias=True) ## ) ## SimpleRNN( ## (rnn): RNN(1, 20, batch_first=True) ## (fc): Linear(in_features=20, out_features=1, bias=True) ## ) ## SimpleRNN( ## (rnn): RNN(1, 20, batch_first=True) ## (fc): Linear(in_features=20, out_features=1, bias=True) ## ) ## SimpleRNN( ## (rnn): RNN(1, 20, batch_first=True) ## (fc): Linear(in_features=20, out_features=1, bias=True) ## ) ## SimpleRNN( ## (rnn): RNN(1, 20, batch_first=True) ## (fc): Linear(in_features=20, out_features=1, bias=True) ## ) ## SimpleRNN( ## (rnn): RNN(1, 20, batch_first=True) ## (fc): Linear(in_features=20, out_features=1, bias=True) ## ) ## SimpleRNN( ## (rnn): RNN(1, 20, batch_first=True) ## (fc): Linear(in_features=20, out_features=1, bias=True) ## ) ## SimpleRNN( ## (rnn): RNN(1, 20, batch_first=True) ## (fc): Linear(in_features=20, out_features=1, bias=True) ## ) ## SimpleRNN( ## (rnn): RNN(1, 20, batch_first=True) ## (fc): Linear(in_features=20, out_features=1, bias=True) ## ) ## SimpleRNN( ## (rnn): RNN(1, 20, batch_first=True) ## (fc): Linear(in_features=20, out_features=1, bias=True) ## ) ## SimpleRNN( ## (rnn): RNN(1, 20, batch_first=True) ## (fc): Linear(in_features=20, out_features=1, bias=True) ## ) ## SimpleRNN( ## (rnn): RNN(1, 20, batch_first=True) ## (fc): Linear(in_features=20, out_features=1, bias=True) ## ) ## SimpleRNN( ## (rnn): RNN(1, 20, batch_first=True) ## (fc): Linear(in_features=20, out_features=1, bias=True) ## ) ## SimpleRNN( ## (rnn): RNN(1, 20, batch_first=True) ## (fc): Linear(in_features=20, out_features=1, bias=True) ## ) ## SimpleRNN( ## (rnn): RNN(1, 20, batch_first=True) ## (fc): Linear(in_features=20, out_features=1, bias=True) ## ) ## SimpleRNN( ## (rnn): RNN(1, 20, batch_first=True) ## (fc): Linear(in_features=20, out_features=1, bias=True) ## ) ## SimpleRNN( ## (rnn): RNN(1, 20, batch_first=True) ## (fc): Linear(in_features=20, out_features=1, bias=True) ## ) ## SimpleRNN( ## (rnn): RNN(1, 20, batch_first=True) ## (fc): Linear(in_features=20, out_features=1, bias=True) ## ) ## SimpleRNN( ## (rnn): RNN(1, 20, batch_first=True) ## (fc): Linear(in_features=20, out_features=1, bias=True) ## ) ## SimpleRNN( ## (rnn): RNN(1, 20, batch_first=True) ## (fc): Linear(in_features=20, out_features=1, bias=True) ## ) ## SimpleRNN( ## (rnn): RNN(1, 20, batch_first=True) ## (fc): Linear(in_features=20, out_features=1, bias=True) ## ) ## SimpleRNN( ## (rnn): RNN(1, 20, batch_first=True) ## (fc): Linear(in_features=20, out_features=1, bias=True) ## ) ## SimpleRNN( ## (rnn): RNN(1, 20, batch_first=True) ## (fc): Linear(in_features=20, out_features=1, bias=True) ## ) ## SimpleRNN( ## (rnn): RNN(1, 20, batch_first=True) ## (fc): Linear(in_features=20, out_features=1, bias=True) ## ) ## SimpleRNN( ## (rnn): RNN(1, 20, batch_first=True) ## (fc): Linear(in_features=20, out_features=1, bias=True) ## ) ## SimpleRNN( ## (rnn): RNN(1, 20, batch_first=True) ## (fc): Linear(in_features=20, out_features=1, bias=True) ## ) ## SimpleRNN( ## (rnn): RNN(1, 20, batch_first=True) ## (fc): Linear(in_features=20, out_features=1, bias=True) ## ) ## SimpleRNN( ## (rnn): RNN(1, 20, batch_first=True) ## (fc): Linear(in_features=20, out_features=1, bias=True) ## ) ## SimpleRNN( ## (rnn): RNN(1, 20, batch_first=True) ## (fc): Linear(in_features=20, out_features=1, bias=True) ## ) ## SimpleRNN( ## (rnn): RNN(1, 20, batch_first=True) ## (fc): Linear(in_features=20, out_features=1, bias=True) ## ) ## SimpleRNN( ## (rnn): RNN(1, 20, batch_first=True) ## (fc): Linear(in_features=20, out_features=1, bias=True) ## ) ## SimpleRNN( ## (rnn): RNN(1, 20, batch_first=True) ## (fc): Linear(in_features=20, out_features=1, bias=True) ## ) ## SimpleRNN( ## (rnn): RNN(1, 20, batch_first=True) ## (fc): Linear(in_features=20, out_features=1, bias=True) ## ) ## SimpleRNN( ## (rnn): RNN(1, 20, batch_first=True) ## (fc): Linear(in_features=20, out_features=1, bias=True) ## ) ## SimpleRNN( ## (rnn): RNN(1, 20, batch_first=True) ## (fc): Linear(in_features=20, out_features=1, bias=True) ## ) ## SimpleRNN( ## (rnn): RNN(1, 20, batch_first=True) ## (fc): Linear(in_features=20, out_features=1, bias=True) ## ) ## SimpleRNN( ## (rnn): RNN(1, 20, batch_first=True) ## (fc): Linear(in_features=20, out_features=1, bias=True) ## ) ## SimpleRNN( ## (rnn): RNN(1, 20, batch_first=True) ## (fc): Linear(in_features=20, out_features=1, bias=True) ## ) ## SimpleRNN( ## (rnn): RNN(1, 20, batch_first=True) ## (fc): Linear(in_features=20, out_features=1, bias=True) ## ) ## SimpleRNN( ## (rnn): RNN(1, 20, batch_first=True) ## (fc): Linear(in_features=20, out_features=1, bias=True) ## ) ## Loss: 25693.943359375 ## SimpleRNN( ## (rnn): RNN(1, 20, batch_first=True) ## (fc): Linear(in_features=20, out_features=1, bias=True) ## ) ## SimpleRNN( ## (rnn): RNN(1, 20, batch_first=True) ## (fc): Linear(in_features=20, out_features=1, bias=True) ## ) ## SimpleRNN( ## (rnn): RNN(1, 20, batch_first=True) ## (fc): Linear(in_features=20, out_features=1, bias=True) ## ) ## SimpleRNN( ## (rnn): RNN(1, 20, batch_first=True) ## (fc): Linear(in_features=20, out_features=1, bias=True) ## ) ## SimpleRNN( ## (rnn): RNN(1, 20, batch_first=True) ## (fc): Linear(in_features=20, out_features=1, bias=True) ## ) ## SimpleRNN( ## (rnn): RNN(1, 20, batch_first=True) ## (fc): Linear(in_features=20, out_features=1, bias=True) ## ) ## SimpleRNN( ## (rnn): RNN(1, 20, batch_first=True) ## (fc): Linear(in_features=20, out_features=1, bias=True) ## ) ## SimpleRNN( ## (rnn): RNN(1, 20, batch_first=True) ## (fc): Linear(in_features=20, out_features=1, bias=True) ## ) ## SimpleRNN( ## (rnn): RNN(1, 20, batch_first=True) ## (fc): Linear(in_features=20, out_features=1, bias=True) ## ) ## SimpleRNN( ## (rnn): RNN(1, 20, batch_first=True) ## (fc): Linear(in_features=20, out_features=1, bias=True) ## ) ## SimpleRNN( ## (rnn): RNN(1, 20, batch_first=True) ## (fc): Linear(in_features=20, out_features=1, bias=True) ## ) ## SimpleRNN( ## (rnn): RNN(1, 20, batch_first=True) ## (fc): Linear(in_features=20, out_features=1, bias=True) ## ) ## SimpleRNN( ## (rnn): RNN(1, 20, batch_first=True) ## (fc): Linear(in_features=20, out_features=1, bias=True) ## ) ## SimpleRNN( ## (rnn): RNN(1, 20, batch_first=True) ## (fc): Linear(in_features=20, out_features=1, bias=True) ## ) ## SimpleRNN( ## (rnn): RNN(1, 20, batch_first=True) ## (fc): Linear(in_features=20, out_features=1, bias=True) ## ) ## SimpleRNN( ## (rnn): RNN(1, 20, batch_first=True) ## (fc): Linear(in_features=20, out_features=1, bias=True) ## ) ## SimpleRNN( ## (rnn): RNN(1, 20, batch_first=True) ## (fc): Linear(in_features=20, out_features=1, bias=True) ## ) ## SimpleRNN( ## (rnn): RNN(1, 20, batch_first=True) ## (fc): Linear(in_features=20, out_features=1, bias=True) ## ) ## SimpleRNN( ## (rnn): RNN(1, 20, batch_first=True) ## (fc): Linear(in_features=20, out_features=1, bias=True) ## ) ## SimpleRNN( ## (rnn): RNN(1, 20, batch_first=True) ## (fc): Linear(in_features=20, out_features=1, bias=True) ## ) ## SimpleRNN( ## (rnn): RNN(1, 20, batch_first=True) ## (fc): Linear(in_features=20, out_features=1, bias=True) ## ) ## SimpleRNN( ## (rnn): RNN(1, 20, batch_first=True) ## (fc): Linear(in_features=20, out_features=1, bias=True) ## ) ## SimpleRNN( ## (rnn): RNN(1, 20, batch_first=True) ## (fc): Linear(in_features=20, out_features=1, bias=True) ## ) ## SimpleRNN( ## (rnn): RNN(1, 20, batch_first=True) ## (fc): Linear(in_features=20, out_features=1, bias=True) ## ) ## SimpleRNN( ## (rnn): RNN(1, 20, batch_first=True) ## (fc): Linear(in_features=20, out_features=1, bias=True) ## ) ## SimpleRNN( ## (rnn): RNN(1, 20, batch_first=True) ## (fc): Linear(in_features=20, out_features=1, bias=True) ## ) ## SimpleRNN( ## (rnn): RNN(1, 20, batch_first=True) ## (fc): Linear(in_features=20, out_features=1, bias=True) ## ) ## SimpleRNN( ## (rnn): RNN(1, 20, batch_first=True) ## (fc): Linear(in_features=20, out_features=1, bias=True) ## ) ## SimpleRNN( ## (rnn): RNN(1, 20, batch_first=True) ## (fc): Linear(in_features=20, out_features=1, bias=True) ## ) ## SimpleRNN( ## (rnn): RNN(1, 20, batch_first=True) ## (fc): Linear(in_features=20, out_features=1, bias=True) ## ) ## SimpleRNN( ## (rnn): RNN(1, 20, batch_first=True) ## (fc): Linear(in_features=20, out_features=1, bias=True) ## ) ## SimpleRNN( ## (rnn): RNN(1, 20, batch_first=True) ## (fc): Linear(in_features=20, out_features=1, bias=True) ## ) ## SimpleRNN( ## (rnn): RNN(1, 20, batch_first=True) ## (fc): Linear(in_features=20, out_features=1, bias=True) ## ) ## SimpleRNN( ## (rnn): RNN(1, 20, batch_first=True) ## (fc): Linear(in_features=20, out_features=1, bias=True) ## ) ## SimpleRNN( ## (rnn): RNN(1, 20, batch_first=True) ## (fc): Linear(in_features=20, out_features=1, bias=True) ## ) ## SimpleRNN( ## (rnn): RNN(1, 20, batch_first=True) ## (fc): Linear(in_features=20, out_features=1, bias=True) ## ) ## SimpleRNN( ## (rnn): RNN(1, 20, batch_first=True) ## (fc): Linear(in_features=20, out_features=1, bias=True) ## ) ## SimpleRNN( ## (rnn): RNN(1, 20, batch_first=True) ## (fc): Linear(in_features=20, out_features=1, bias=True) ## ) ## SimpleRNN( ## (rnn): RNN(1, 20, batch_first=True) ## (fc): Linear(in_features=20, out_features=1, bias=True) ## ) ## SimpleRNN( ## (rnn): RNN(1, 20, batch_first=True) ## (fc): Linear(in_features=20, out_features=1, bias=True) ## ) ## SimpleRNN( ## (rnn): RNN(1, 20, batch_first=True) ## (fc): Linear(in_features=20, out_features=1, bias=True) ## ) ## SimpleRNN( ## (rnn): RNN(1, 20, batch_first=True) ## (fc): Linear(in_features=20, out_features=1, bias=True) ## ) ## SimpleRNN( ## (rnn): RNN(1, 20, batch_first=True) ## (fc): Linear(in_features=20, out_features=1, bias=True) ## ) ## SimpleRNN( ## (rnn): RNN(1, 20, batch_first=True) ## (fc): Linear(in_features=20, out_features=1, bias=True) ## ) ## SimpleRNN( ## (rnn): RNN(1, 20, batch_first=True) ## (fc): Linear(in_features=20, out_features=1, bias=True) ## ) ## SimpleRNN( ## (rnn): RNN(1, 20, batch_first=True) ## (fc): Linear(in_features=20, out_features=1, bias=True) ## ) ## SimpleRNN( ## (rnn): RNN(1, 20, batch_first=True) ## (fc): Linear(in_features=20, out_features=1, bias=True) ## ) ## SimpleRNN( ## (rnn): RNN(1, 20, batch_first=True) ## (fc): Linear(in_features=20, out_features=1, bias=True) ## ) ## SimpleRNN( ## (rnn): RNN(1, 20, batch_first=True) ## (fc): Linear(in_features=20, out_features=1, bias=True) ## ) ## SimpleRNN( ## (rnn): RNN(1, 20, batch_first=True) ## (fc): Linear(in_features=20, out_features=1, bias=True) ## ) ## SimpleRNN( ## (rnn): RNN(1, 20, batch_first=True) ## (fc): Linear(in_features=20, out_features=1, bias=True) ## ) ## SimpleRNN( ## (rnn): RNN(1, 20, batch_first=True) ## (fc): Linear(in_features=20, out_features=1, bias=True) ## ) ## SimpleRNN( ## (rnn): RNN(1, 20, batch_first=True) ## (fc): Linear(in_features=20, out_features=1, bias=True) ## ) ## SimpleRNN( ## (rnn): RNN(1, 20, batch_first=True) ## (fc): Linear(in_features=20, out_features=1, bias=True) ## ) ## SimpleRNN( ## (rnn): RNN(1, 20, batch_first=True) ## (fc): Linear(in_features=20, out_features=1, bias=True) ## ) ## SimpleRNN( ## (rnn): RNN(1, 20, batch_first=True) ## (fc): Linear(in_features=20, out_features=1, bias=True) ## ) ## SimpleRNN( ## (rnn): RNN(1, 20, batch_first=True) ## (fc): Linear(in_features=20, out_features=1, bias=True) ## ) ## SimpleRNN( ## (rnn): RNN(1, 20, batch_first=True) ## (fc): Linear(in_features=20, out_features=1, bias=True) ## ) ## SimpleRNN( ## (rnn): RNN(1, 20, batch_first=True) ## (fc): Linear(in_features=20, out_features=1, bias=True) ## ) ## SimpleRNN( ## (rnn): RNN(1, 20, batch_first=True) ## (fc): Linear(in_features=20, out_features=1, bias=True) ## ) ## SimpleRNN( ## (rnn): RNN(1, 20, batch_first=True) ## (fc): Linear(in_features=20, out_features=1, bias=True) ## ) ## SimpleRNN( ## (rnn): RNN(1, 20, batch_first=True) ## (fc): Linear(in_features=20, out_features=1, bias=True) ## ) ## SimpleRNN( ## (rnn): RNN(1, 20, batch_first=True) ## (fc): Linear(in_features=20, out_features=1, bias=True) ## ) ## SimpleRNN( ## (rnn): RNN(1, 20, batch_first=True) ## (fc): Linear(in_features=20, out_features=1, bias=True) ## ) ## SimpleRNN( ## (rnn): RNN(1, 20, batch_first=True) ## (fc): Linear(in_features=20, out_features=1, bias=True) ## ) ## SimpleRNN( ## (rnn): RNN(1, 20, batch_first=True) ## (fc): Linear(in_features=20, out_features=1, bias=True) ## ) ## SimpleRNN( ## (rnn): RNN(1, 20, batch_first=True) ## (fc): Linear(in_features=20, out_features=1, bias=True) ## ) ## SimpleRNN( ## (rnn): RNN(1, 20, batch_first=True) ## (fc): Linear(in_features=20, out_features=1, bias=True) ## ) ## SimpleRNN( ## (rnn): RNN(1, 20, batch_first=True) ## (fc): Linear(in_features=20, out_features=1, bias=True) ## ) ## SimpleRNN( ## (rnn): RNN(1, 20, batch_first=True) ## (fc): Linear(in_features=20, out_features=1, bias=True) ## ) ## SimpleRNN( ## (rnn): RNN(1, 20, batch_first=True) ## (fc): Linear(in_features=20, out_features=1, bias=True) ## ) ## SimpleRNN( ## (rnn): RNN(1, 20, batch_first=True) ## (fc): Linear(in_features=20, out_features=1, bias=True) ## ) ## SimpleRNN( ## (rnn): RNN(1, 20, batch_first=True) ## (fc): Linear(in_features=20, out_features=1, bias=True) ## ) ## SimpleRNN( ## (rnn): RNN(1, 20, batch_first=True) ## (fc): Linear(in_features=20, out_features=1, bias=True) ## ) ## SimpleRNN( ## (rnn): RNN(1, 20, batch_first=True) ## (fc): Linear(in_features=20, out_features=1, bias=True) ## ) ## SimpleRNN( ## (rnn): RNN(1, 20, batch_first=True) ## (fc): Linear(in_features=20, out_features=1, bias=True) ## ) ## SimpleRNN( ## (rnn): RNN(1, 20, batch_first=True) ## (fc): Linear(in_features=20, out_features=1, bias=True) ## ) ## SimpleRNN( ## (rnn): RNN(1, 20, batch_first=True) ## (fc): Linear(in_features=20, out_features=1, bias=True) ## ) ## SimpleRNN( ## (rnn): RNN(1, 20, batch_first=True) ## (fc): Linear(in_features=20, out_features=1, bias=True) ## ) ## SimpleRNN( ## (rnn): RNN(1, 20, batch_first=True) ## (fc): Linear(in_features=20, out_features=1, bias=True) ## ) ## SimpleRNN( ## (rnn): RNN(1, 20, batch_first=True) ## (fc): Linear(in_features=20, out_features=1, bias=True) ## ) ## SimpleRNN( ## (rnn): RNN(1, 20, batch_first=True) ## (fc): Linear(in_features=20, out_features=1, bias=True) ## ) ## SimpleRNN( ## (rnn): RNN(1, 20, batch_first=True) ## (fc): Linear(in_features=20, out_features=1, bias=True) ## ) ## SimpleRNN( ## (rnn): RNN(1, 20, batch_first=True) ## (fc): Linear(in_features=20, out_features=1, bias=True) ## ) ## SimpleRNN( ## (rnn): RNN(1, 20, batch_first=True) ## (fc): Linear(in_features=20, out_features=1, bias=True) ## ) ## SimpleRNN( ## (rnn): RNN(1, 20, batch_first=True) ## (fc): Linear(in_features=20, out_features=1, bias=True) ## ) ## SimpleRNN( ## (rnn): RNN(1, 20, batch_first=True) ## (fc): Linear(in_features=20, out_features=1, bias=True) ## ) ## SimpleRNN( ## (rnn): RNN(1, 20, batch_first=True) ## (fc): Linear(in_features=20, out_features=1, bias=True) ## ) ## SimpleRNN( ## (rnn): RNN(1, 20, batch_first=True) ## (fc): Linear(in_features=20, out_features=1, bias=True) ## ) ## SimpleRNN( ## (rnn): RNN(1, 20, batch_first=True) ## (fc): Linear(in_features=20, out_features=1, bias=True) ## ) ## SimpleRNN( ## (rnn): RNN(1, 20, batch_first=True) ## (fc): Linear(in_features=20, out_features=1, bias=True) ## ) ## SimpleRNN( ## (rnn): RNN(1, 20, batch_first=True) ## (fc): Linear(in_features=20, out_features=1, bias=True) ## ) ## SimpleRNN( ## (rnn): RNN(1, 20, batch_first=True) ## (fc): Linear(in_features=20, out_features=1, bias=True) ## ) ## SimpleRNN( ## (rnn): RNN(1, 20, batch_first=True) ## (fc): Linear(in_features=20, out_features=1, bias=True) ## ) ## SimpleRNN( ## (rnn): RNN(1, 20, batch_first=True) ## (fc): Linear(in_features=20, out_features=1, bias=True) ## ) ## SimpleRNN( ## (rnn): RNN(1, 20, batch_first=True) ## (fc): Linear(in_features=20, out_features=1, bias=True) ## ) ## SimpleRNN( ## (rnn): RNN(1, 20, batch_first=True) ## (fc): Linear(in_features=20, out_features=1, bias=True) ## ) ## SimpleRNN( ## (rnn): RNN(1, 20, batch_first=True) ## (fc): Linear(in_features=20, out_features=1, bias=True) ## ) ## SimpleRNN( ## (rnn): RNN(1, 20, batch_first=True) ## (fc): Linear(in_features=20, out_features=1, bias=True) ## ) ## SimpleRNN( ## (rnn): RNN(1, 20, batch_first=True) ## (fc): Linear(in_features=20, out_features=1, bias=True) ## ) ## Loss: 8999.2021484375 ## SimpleRNN( ## (rnn): RNN(1, 20, batch_first=True) ## (fc): Linear(in_features=20, out_features=1, bias=True) ## ) ## SimpleRNN( ## (rnn): RNN(1, 20, batch_first=True) ## (fc): Linear(in_features=20, out_features=1, bias=True) ## ) ## SimpleRNN( ## (rnn): RNN(1, 20, batch_first=True) ## (fc): Linear(in_features=20, out_features=1, bias=True) ## ) ## SimpleRNN( ## (rnn): RNN(1, 20, batch_first=True) ## (fc): Linear(in_features=20, out_features=1, bias=True) ## ) ## SimpleRNN( ## (rnn): RNN(1, 20, batch_first=True) ## (fc): Linear(in_features=20, out_features=1, bias=True) ## ) ## SimpleRNN( ## (rnn): RNN(1, 20, batch_first=True) ## (fc): Linear(in_features=20, out_features=1, bias=True) ## ) ## SimpleRNN( ## (rnn): RNN(1, 20, batch_first=True) ## (fc): Linear(in_features=20, out_features=1, bias=True) ## ) ## SimpleRNN( ## (rnn): RNN(1, 20, batch_first=True) ## (fc): Linear(in_features=20, out_features=1, bias=True) ## ) ## SimpleRNN( ## (rnn): RNN(1, 20, batch_first=True) ## (fc): Linear(in_features=20, out_features=1, bias=True) ## ) ## SimpleRNN( ## (rnn): RNN(1, 20, batch_first=True) ## (fc): Linear(in_features=20, out_features=1, bias=True) ## ) ## SimpleRNN( ## (rnn): RNN(1, 20, batch_first=True) ## (fc): Linear(in_features=20, out_features=1, bias=True) ## ) ## SimpleRNN( ## (rnn): RNN(1, 20, batch_first=True) ## (fc): Linear(in_features=20, out_features=1, bias=True) ## ) ## SimpleRNN( ## (rnn): RNN(1, 20, batch_first=True) ## (fc): Linear(in_features=20, out_features=1, bias=True) ## ) ## SimpleRNN( ## (rnn): RNN(1, 20, batch_first=True) ## (fc): Linear(in_features=20, out_features=1, bias=True) ## ) ## SimpleRNN( ## (rnn): RNN(1, 20, batch_first=True) ## (fc): Linear(in_features=20, out_features=1, bias=True) ## ) ## SimpleRNN( ## (rnn): RNN(1, 20, batch_first=True) ## (fc): Linear(in_features=20, out_features=1, bias=True) ## ) ## SimpleRNN( ## (rnn): RNN(1, 20, batch_first=True) ## (fc): Linear(in_features=20, out_features=1, bias=True) ## ) ## SimpleRNN( ## (rnn): RNN(1, 20, batch_first=True) ## (fc): Linear(in_features=20, out_features=1, bias=True) ## ) ## SimpleRNN( ## (rnn): RNN(1, 20, batch_first=True) ## (fc): Linear(in_features=20, out_features=1, bias=True) ## ) ## SimpleRNN( ## (rnn): RNN(1, 20, batch_first=True) ## (fc): Linear(in_features=20, out_features=1, bias=True) ## ) ## SimpleRNN( ## (rnn): RNN(1, 20, batch_first=True) ## (fc): Linear(in_features=20, out_features=1, bias=True) ## ) ## SimpleRNN( ## (rnn): RNN(1, 20, batch_first=True) ## (fc): Linear(in_features=20, out_features=1, bias=True) ## ) ## SimpleRNN( ## (rnn): RNN(1, 20, batch_first=True) ## (fc): Linear(in_features=20, out_features=1, bias=True) ## ) ## SimpleRNN( ## (rnn): RNN(1, 20, batch_first=True) ## (fc): Linear(in_features=20, out_features=1, bias=True) ## ) ## SimpleRNN( ## (rnn): RNN(1, 20, batch_first=True) ## (fc): Linear(in_features=20, out_features=1, bias=True) ## ) ## SimpleRNN( ## (rnn): RNN(1, 20, batch_first=True) ## (fc): Linear(in_features=20, out_features=1, bias=True) ## ) ## SimpleRNN( ## (rnn): RNN(1, 20, batch_first=True) ## (fc): Linear(in_features=20, out_features=1, bias=True) ## ) ## SimpleRNN( ## (rnn): RNN(1, 20, batch_first=True) ## (fc): Linear(in_features=20, out_features=1, bias=True) ## ) ## SimpleRNN( ## (rnn): RNN(1, 20, batch_first=True) ## (fc): Linear(in_features=20, out_features=1, bias=True) ## ) ## SimpleRNN( ## (rnn): RNN(1, 20, batch_first=True) ## (fc): Linear(in_features=20, out_features=1, bias=True) ## ) ## SimpleRNN( ## (rnn): RNN(1, 20, batch_first=True) ## (fc): Linear(in_features=20, out_features=1, bias=True) ## ) ## SimpleRNN( ## (rnn): RNN(1, 20, batch_first=True) ## (fc): Linear(in_features=20, out_features=1, bias=True) ## ) ## SimpleRNN( ## (rnn): RNN(1, 20, batch_first=True) ## (fc): Linear(in_features=20, out_features=1, bias=True) ## ) ## SimpleRNN( ## (rnn): RNN(1, 20, batch_first=True) ## (fc): Linear(in_features=20, out_features=1, bias=True) ## ) ## SimpleRNN( ## (rnn): RNN(1, 20, batch_first=True) ## (fc): Linear(in_features=20, out_features=1, bias=True) ## ) ## SimpleRNN( ## (rnn): RNN(1, 20, batch_first=True) ## (fc): Linear(in_features=20, out_features=1, bias=True) ## ) ## SimpleRNN( ## (rnn): RNN(1, 20, batch_first=True) ## (fc): Linear(in_features=20, out_features=1, bias=True) ## ) ## SimpleRNN( ## (rnn): RNN(1, 20, batch_first=True) ## (fc): Linear(in_features=20, out_features=1, bias=True) ## ) ## SimpleRNN( ## (rnn): RNN(1, 20, batch_first=True) ## (fc): Linear(in_features=20, out_features=1, bias=True) ## ) ## SimpleRNN( ## (rnn): RNN(1, 20, batch_first=True) ## (fc): Linear(in_features=20, out_features=1, bias=True) ## ) ## SimpleRNN( ## (rnn): RNN(1, 20, batch_first=True) ## (fc): Linear(in_features=20, out_features=1, bias=True) ## ) ## SimpleRNN( ## (rnn): RNN(1, 20, batch_first=True) ## (fc): Linear(in_features=20, out_features=1, bias=True) ## ) ## SimpleRNN( ## (rnn): RNN(1, 20, batch_first=True) ## (fc): Linear(in_features=20, out_features=1, bias=True) ## ) ## SimpleRNN( ## (rnn): RNN(1, 20, batch_first=True) ## (fc): Linear(in_features=20, out_features=1, bias=True) ## ) ## SimpleRNN( ## (rnn): RNN(1, 20, batch_first=True) ## (fc): Linear(in_features=20, out_features=1, bias=True) ## ) ## SimpleRNN( ## (rnn): RNN(1, 20, batch_first=True) ## (fc): Linear(in_features=20, out_features=1, bias=True) ## ) ## SimpleRNN( ## (rnn): RNN(1, 20, batch_first=True) ## (fc): Linear(in_features=20, out_features=1, bias=True) ## ) ## SimpleRNN( ## (rnn): RNN(1, 20, batch_first=True) ## (fc): Linear(in_features=20, out_features=1, bias=True) ## ) ## SimpleRNN( ## (rnn): RNN(1, 20, batch_first=True) ## (fc): Linear(in_features=20, out_features=1, bias=True) ## ) ## SimpleRNN( ## (rnn): RNN(1, 20, batch_first=True) ## (fc): Linear(in_features=20, out_features=1, bias=True) ## ) ## SimpleRNN( ## (rnn): RNN(1, 20, batch_first=True) ## (fc): Linear(in_features=20, out_features=1, bias=True) ## ) ## SimpleRNN( ## (rnn): RNN(1, 20, batch_first=True) ## (fc): Linear(in_features=20, out_features=1, bias=True) ## ) ## SimpleRNN( ## (rnn): RNN(1, 20, batch_first=True) ## (fc): Linear(in_features=20, out_features=1, bias=True) ## ) ## SimpleRNN( ## (rnn): RNN(1, 20, batch_first=True) ## (fc): Linear(in_features=20, out_features=1, bias=True) ## ) ## SimpleRNN( ## (rnn): RNN(1, 20, batch_first=True) ## (fc): Linear(in_features=20, out_features=1, bias=True) ## ) ## SimpleRNN( ## (rnn): RNN(1, 20, batch_first=True) ## (fc): Linear(in_features=20, out_features=1, bias=True) ## ) ## SimpleRNN( ## (rnn): RNN(1, 20, batch_first=True) ## (fc): Linear(in_features=20, out_features=1, bias=True) ## ) ## SimpleRNN( ## (rnn): RNN(1, 20, batch_first=True) ## (fc): Linear(in_features=20, out_features=1, bias=True) ## ) ## SimpleRNN( ## (rnn): RNN(1, 20, batch_first=True) ## (fc): Linear(in_features=20, out_features=1, bias=True) ## ) ## SimpleRNN( ## (rnn): RNN(1, 20, batch_first=True) ## (fc): Linear(in_features=20, out_features=1, bias=True) ## ) ## SimpleRNN( ## (rnn): RNN(1, 20, batch_first=True) ## (fc): Linear(in_features=20, out_features=1, bias=True) ## ) ## SimpleRNN( ## (rnn): RNN(1, 20, batch_first=True) ## (fc): Linear(in_features=20, out_features=1, bias=True) ## ) ## SimpleRNN( ## (rnn): RNN(1, 20, batch_first=True) ## (fc): Linear(in_features=20, out_features=1, bias=True) ## ) ## SimpleRNN( ## (rnn): RNN(1, 20, batch_first=True) ## (fc): Linear(in_features=20, out_features=1, bias=True) ## ) ## SimpleRNN( ## (rnn): RNN(1, 20, batch_first=True) ## (fc): Linear(in_features=20, out_features=1, bias=True) ## ) ## SimpleRNN( ## (rnn): RNN(1, 20, batch_first=True) ## (fc): Linear(in_features=20, out_features=1, bias=True) ## ) ## SimpleRNN( ## (rnn): RNN(1, 20, batch_first=True) ## (fc): Linear(in_features=20, out_features=1, bias=True) ## ) ## SimpleRNN( ## (rnn): RNN(1, 20, batch_first=True) ## (fc): Linear(in_features=20, out_features=1, bias=True) ## ) ## SimpleRNN( ## (rnn): RNN(1, 20, batch_first=True) ## (fc): Linear(in_features=20, out_features=1, bias=True) ## ) ## SimpleRNN( ## (rnn): RNN(1, 20, batch_first=True) ## (fc): Linear(in_features=20, out_features=1, bias=True) ## ) ## SimpleRNN( ## (rnn): RNN(1, 20, batch_first=True) ## (fc): Linear(in_features=20, out_features=1, bias=True) ## ) ## SimpleRNN( ## (rnn): RNN(1, 20, batch_first=True) ## (fc): Linear(in_features=20, out_features=1, bias=True) ## ) ## SimpleRNN( ## (rnn): RNN(1, 20, batch_first=True) ## (fc): Linear(in_features=20, out_features=1, bias=True) ## ) ## SimpleRNN( ## (rnn): RNN(1, 20, batch_first=True) ## (fc): Linear(in_features=20, out_features=1, bias=True) ## ) ## SimpleRNN( ## (rnn): RNN(1, 20, batch_first=True) ## (fc): Linear(in_features=20, out_features=1, bias=True) ## ) ## SimpleRNN( ## (rnn): RNN(1, 20, batch_first=True) ## (fc): Linear(in_features=20, out_features=1, bias=True) ## ) ## SimpleRNN( ## (rnn): RNN(1, 20, batch_first=True) ## (fc): Linear(in_features=20, out_features=1, bias=True) ## ) ## SimpleRNN( ## (rnn): RNN(1, 20, batch_first=True) ## (fc): Linear(in_features=20, out_features=1, bias=True) ## ) ## SimpleRNN( ## (rnn): RNN(1, 20, batch_first=True) ## (fc): Linear(in_features=20, out_features=1, bias=True) ## ) ## SimpleRNN( ## (rnn): RNN(1, 20, batch_first=True) ## (fc): Linear(in_features=20, out_features=1, bias=True) ## ) ## SimpleRNN( ## (rnn): RNN(1, 20, batch_first=True) ## (fc): Linear(in_features=20, out_features=1, bias=True) ## ) ## SimpleRNN( ## (rnn): RNN(1, 20, batch_first=True) ## (fc): Linear(in_features=20, out_features=1, bias=True) ## ) ## SimpleRNN( ## (rnn): RNN(1, 20, batch_first=True) ## (fc): Linear(in_features=20, out_features=1, bias=True) ## ) ## SimpleRNN( ## (rnn): RNN(1, 20, batch_first=True) ## (fc): Linear(in_features=20, out_features=1, bias=True) ## ) ## SimpleRNN( ## (rnn): RNN(1, 20, batch_first=True) ## (fc): Linear(in_features=20, out_features=1, bias=True) ## ) ## SimpleRNN( ## (rnn): RNN(1, 20, batch_first=True) ## (fc): Linear(in_features=20, out_features=1, bias=True) ## ) ## SimpleRNN( ## (rnn): RNN(1, 20, batch_first=True) ## (fc): Linear(in_features=20, out_features=1, bias=True) ## ) ## SimpleRNN( ## (rnn): RNN(1, 20, batch_first=True) ## (fc): Linear(in_features=20, out_features=1, bias=True) ## ) ## SimpleRNN( ## (rnn): RNN(1, 20, batch_first=True) ## (fc): Linear(in_features=20, out_features=1, bias=True) ## ) ## SimpleRNN( ## (rnn): RNN(1, 20, batch_first=True) ## (fc): Linear(in_features=20, out_features=1, bias=True) ## ) ## SimpleRNN( ## (rnn): RNN(1, 20, batch_first=True) ## (fc): Linear(in_features=20, out_features=1, bias=True) ## ) ## SimpleRNN( ## (rnn): RNN(1, 20, batch_first=True) ## (fc): Linear(in_features=20, out_features=1, bias=True) ## ) ## SimpleRNN( ## (rnn): RNN(1, 20, batch_first=True) ## (fc): Linear(in_features=20, out_features=1, bias=True) ## ) ## SimpleRNN( ## (rnn): RNN(1, 20, batch_first=True) ## (fc): Linear(in_features=20, out_features=1, bias=True) ## ) ## SimpleRNN( ## (rnn): RNN(1, 20, batch_first=True) ## (fc): Linear(in_features=20, out_features=1, bias=True) ## ) ## SimpleRNN( ## (rnn): RNN(1, 20, batch_first=True) ## (fc): Linear(in_features=20, out_features=1, bias=True) ## ) ## SimpleRNN( ## (rnn): RNN(1, 20, batch_first=True) ## (fc): Linear(in_features=20, out_features=1, bias=True) ## ) ## SimpleRNN( ## (rnn): RNN(1, 20, batch_first=True) ## (fc): Linear(in_features=20, out_features=1, bias=True) ## ) ## SimpleRNN( ## (rnn): RNN(1, 20, batch_first=True) ## (fc): Linear(in_features=20, out_features=1, bias=True) ## ) ## SimpleRNN( ## (rnn): RNN(1, 20, batch_first=True) ## (fc): Linear(in_features=20, out_features=1, bias=True) ## ) ## Loss: 10627.8330078125 ## SimpleRNN( ## (rnn): RNN(1, 20, batch_first=True) ## (fc): Linear(in_features=20, out_features=1, bias=True) ## ) ## SimpleRNN( ## (rnn): RNN(1, 20, batch_first=True) ## (fc): Linear(in_features=20, out_features=1, bias=True) ## ) ## SimpleRNN( ## (rnn): RNN(1, 20, batch_first=True) ## (fc): Linear(in_features=20, out_features=1, bias=True) ## ) ## SimpleRNN( ## (rnn): RNN(1, 20, batch_first=True) ## (fc): Linear(in_features=20, out_features=1, bias=True) ## ) ## SimpleRNN( ## (rnn): RNN(1, 20, batch_first=True) ## (fc): Linear(in_features=20, out_features=1, bias=True) ## ) ## SimpleRNN( ## (rnn): RNN(1, 20, batch_first=True) ## (fc): Linear(in_features=20, out_features=1, bias=True) ## ) ## SimpleRNN( ## (rnn): RNN(1, 20, batch_first=True) ## (fc): Linear(in_features=20, out_features=1, bias=True) ## ) ## SimpleRNN( ## (rnn): RNN(1, 20, batch_first=True) ## (fc): Linear(in_features=20, out_features=1, bias=True) ## ) ## SimpleRNN( ## (rnn): RNN(1, 20, batch_first=True) ## (fc): Linear(in_features=20, out_features=1, bias=True) ## ) ## SimpleRNN( ## (rnn): RNN(1, 20, batch_first=True) ## (fc): Linear(in_features=20, out_features=1, bias=True) ## ) ## SimpleRNN( ## (rnn): RNN(1, 20, batch_first=True) ## (fc): Linear(in_features=20, out_features=1, bias=True) ## ) ## SimpleRNN( ## (rnn): RNN(1, 20, batch_first=True) ## (fc): Linear(in_features=20, out_features=1, bias=True) ## ) ## SimpleRNN( ## (rnn): RNN(1, 20, batch_first=True) ## (fc): Linear(in_features=20, out_features=1, bias=True) ## ) ## SimpleRNN( ## (rnn): RNN(1, 20, batch_first=True) ## (fc): Linear(in_features=20, out_features=1, bias=True) ## ) ## SimpleRNN( ## (rnn): RNN(1, 20, batch_first=True) ## (fc): Linear(in_features=20, out_features=1, bias=True) ## ) ## SimpleRNN( ## (rnn): RNN(1, 20, batch_first=True) ## (fc): Linear(in_features=20, out_features=1, bias=True) ## ) ## SimpleRNN( ## (rnn): RNN(1, 20, batch_first=True) ## (fc): Linear(in_features=20, out_features=1, bias=True) ## ) ## SimpleRNN( ## (rnn): RNN(1, 20, batch_first=True) ## (fc): Linear(in_features=20, out_features=1, bias=True) ## ) ## SimpleRNN( ## (rnn): RNN(1, 20, batch_first=True) ## (fc): Linear(in_features=20, out_features=1, bias=True) ## ) ## SimpleRNN( ## (rnn): RNN(1, 20, batch_first=True) ## (fc): Linear(in_features=20, out_features=1, bias=True) ## ) ## SimpleRNN( ## (rnn): RNN(1, 20, batch_first=True) ## (fc): Linear(in_features=20, out_features=1, bias=True) ## ) ## SimpleRNN( ## (rnn): RNN(1, 20, batch_first=True) ## (fc): Linear(in_features=20, out_features=1, bias=True) ## ) ## SimpleRNN( ## (rnn): RNN(1, 20, batch_first=True) ## (fc): Linear(in_features=20, out_features=1, bias=True) ## ) ## SimpleRNN( ## (rnn): RNN(1, 20, batch_first=True) ## (fc): Linear(in_features=20, out_features=1, bias=True) ## ) ## SimpleRNN( ## (rnn): RNN(1, 20, batch_first=True) ## (fc): Linear(in_features=20, out_features=1, bias=True) ## ) ## SimpleRNN( ## (rnn): RNN(1, 20, batch_first=True) ## (fc): Linear(in_features=20, out_features=1, bias=True) ## ) ## SimpleRNN( ## (rnn): RNN(1, 20, batch_first=True) ## (fc): Linear(in_features=20, out_features=1, bias=True) ## ) ## SimpleRNN( ## (rnn): RNN(1, 20, batch_first=True) ## (fc): Linear(in_features=20, out_features=1, bias=True) ## ) ## SimpleRNN( ## (rnn): RNN(1, 20, batch_first=True) ## (fc): Linear(in_features=20, out_features=1, bias=True) ## ) ## SimpleRNN( ## (rnn): RNN(1, 20, batch_first=True) ## (fc): Linear(in_features=20, out_features=1, bias=True) ## ) ## SimpleRNN( ## (rnn): RNN(1, 20, batch_first=True) ## (fc): Linear(in_features=20, out_features=1, bias=True) ## ) ## SimpleRNN( ## (rnn): RNN(1, 20, batch_first=True) ## (fc): Linear(in_features=20, out_features=1, bias=True) ## ) ## SimpleRNN( ## (rnn): RNN(1, 20, batch_first=True) ## (fc): Linear(in_features=20, out_features=1, bias=True) ## ) ## SimpleRNN( ## (rnn): RNN(1, 20, batch_first=True) ## (fc): Linear(in_features=20, out_features=1, bias=True) ## ) ## SimpleRNN( ## (rnn): RNN(1, 20, batch_first=True) ## (fc): Linear(in_features=20, out_features=1, bias=True) ## ) ## SimpleRNN( ## (rnn): RNN(1, 20, batch_first=True) ## (fc): Linear(in_features=20, out_features=1, bias=True) ## ) ## SimpleRNN( ## (rnn): RNN(1, 20, batch_first=True) ## (fc): Linear(in_features=20, out_features=1, bias=True) ## ) ## SimpleRNN( ## (rnn): RNN(1, 20, batch_first=True) ## (fc): Linear(in_features=20, out_features=1, bias=True) ## ) ## SimpleRNN( ## (rnn): RNN(1, 20, batch_first=True) ## (fc): Linear(in_features=20, out_features=1, bias=True) ## ) ## SimpleRNN( ## (rnn): RNN(1, 20, batch_first=True) ## (fc): Linear(in_features=20, out_features=1, bias=True) ## ) ## SimpleRNN( ## (rnn): RNN(1, 20, batch_first=True) ## (fc): Linear(in_features=20, out_features=1, bias=True) ## ) ## SimpleRNN( ## (rnn): RNN(1, 20, batch_first=True) ## (fc): Linear(in_features=20, out_features=1, bias=True) ## ) ## SimpleRNN( ## (rnn): RNN(1, 20, batch_first=True) ## (fc): Linear(in_features=20, out_features=1, bias=True) ## ) ## SimpleRNN( ## (rnn): RNN(1, 20, batch_first=True) ## (fc): Linear(in_features=20, out_features=1, bias=True) ## ) ## SimpleRNN( ## (rnn): RNN(1, 20, batch_first=True) ## (fc): Linear(in_features=20, out_features=1, bias=True) ## ) ## SimpleRNN( ## (rnn): RNN(1, 20, batch_first=True) ## (fc): Linear(in_features=20, out_features=1, bias=True) ## ) ## SimpleRNN( ## (rnn): RNN(1, 20, batch_first=True) ## (fc): Linear(in_features=20, out_features=1, bias=True) ## ) ## SimpleRNN( ## (rnn): RNN(1, 20, batch_first=True) ## (fc): Linear(in_features=20, out_features=1, bias=True) ## ) ## SimpleRNN( ## (rnn): RNN(1, 20, batch_first=True) ## (fc): Linear(in_features=20, out_features=1, bias=True) ## ) ## SimpleRNN( ## (rnn): RNN(1, 20, batch_first=True) ## (fc): Linear(in_features=20, out_features=1, bias=True) ## ) ## SimpleRNN( ## (rnn): RNN(1, 20, batch_first=True) ## (fc): Linear(in_features=20, out_features=1, bias=True) ## ) ## SimpleRNN( ## (rnn): RNN(1, 20, batch_first=True) ## (fc): Linear(in_features=20, out_features=1, bias=True) ## ) ## SimpleRNN( ## (rnn): RNN(1, 20, batch_first=True) ## (fc): Linear(in_features=20, out_features=1, bias=True) ## ) ## SimpleRNN( ## (rnn): RNN(1, 20, batch_first=True) ## (fc): Linear(in_features=20, out_features=1, bias=True) ## ) ## SimpleRNN( ## (rnn): RNN(1, 20, batch_first=True) ## (fc): Linear(in_features=20, out_features=1, bias=True) ## ) ## SimpleRNN( ## (rnn): RNN(1, 20, batch_first=True) ## (fc): Linear(in_features=20, out_features=1, bias=True) ## ) ## SimpleRNN( ## (rnn): RNN(1, 20, batch_first=True) ## (fc): Linear(in_features=20, out_features=1, bias=True) ## ) ## SimpleRNN( ## (rnn): RNN(1, 20, batch_first=True) ## (fc): Linear(in_features=20, out_features=1, bias=True) ## ) ## SimpleRNN( ## (rnn): RNN(1, 20, batch_first=True) ## (fc): Linear(in_features=20, out_features=1, bias=True) ## ) ## SimpleRNN( ## (rnn): RNN(1, 20, batch_first=True) ## (fc): Linear(in_features=20, out_features=1, bias=True) ## ) ## SimpleRNN( ## (rnn): RNN(1, 20, batch_first=True) ## (fc): Linear(in_features=20, out_features=1, bias=True) ## ) ## SimpleRNN( ## (rnn): RNN(1, 20, batch_first=True) ## (fc): Linear(in_features=20, out_features=1, bias=True) ## ) ## SimpleRNN( ## (rnn): RNN(1, 20, batch_first=True) ## (fc): Linear(in_features=20, out_features=1, bias=True) ## ) ## SimpleRNN( ## (rnn): RNN(1, 20, batch_first=True) ## (fc): Linear(in_features=20, out_features=1, bias=True) ## ) ## SimpleRNN( ## (rnn): RNN(1, 20, batch_first=True) ## (fc): Linear(in_features=20, out_features=1, bias=True) ## ) ## SimpleRNN( ## (rnn): RNN(1, 20, batch_first=True) ## (fc): Linear(in_features=20, out_features=1, bias=True) ## ) ## SimpleRNN( ## (rnn): RNN(1, 20, batch_first=True) ## (fc): Linear(in_features=20, out_features=1, bias=True) ## ) ## SimpleRNN( ## (rnn): RNN(1, 20, batch_first=True) ## (fc): Linear(in_features=20, out_features=1, bias=True) ## ) ## SimpleRNN( ## (rnn): RNN(1, 20, batch_first=True) ## (fc): Linear(in_features=20, out_features=1, bias=True) ## ) ## SimpleRNN( ## (rnn): RNN(1, 20, batch_first=True) ## (fc): Linear(in_features=20, out_features=1, bias=True) ## ) ## SimpleRNN( ## (rnn): RNN(1, 20, batch_first=True) ## (fc): Linear(in_features=20, out_features=1, bias=True) ## ) ## SimpleRNN( ## (rnn): RNN(1, 20, batch_first=True) ## (fc): Linear(in_features=20, out_features=1, bias=True) ## ) ## SimpleRNN( ## (rnn): RNN(1, 20, batch_first=True) ## (fc): Linear(in_features=20, out_features=1, bias=True) ## ) ## SimpleRNN( ## (rnn): RNN(1, 20, batch_first=True) ## (fc): Linear(in_features=20, out_features=1, bias=True) ## ) ## SimpleRNN( ## (rnn): RNN(1, 20, batch_first=True) ## (fc): Linear(in_features=20, out_features=1, bias=True) ## ) ## SimpleRNN( ## (rnn): RNN(1, 20, batch_first=True) ## (fc): Linear(in_features=20, out_features=1, bias=True) ## ) ## SimpleRNN( ## (rnn): RNN(1, 20, batch_first=True) ## (fc): Linear(in_features=20, out_features=1, bias=True) ## ) ## SimpleRNN( ## (rnn): RNN(1, 20, batch_first=True) ## (fc): Linear(in_features=20, out_features=1, bias=True) ## ) ## SimpleRNN( ## (rnn): RNN(1, 20, batch_first=True) ## (fc): Linear(in_features=20, out_features=1, bias=True) ## ) ## SimpleRNN( ## (rnn): RNN(1, 20, batch_first=True) ## (fc): Linear(in_features=20, out_features=1, bias=True) ## ) ## SimpleRNN( ## (rnn): RNN(1, 20, batch_first=True) ## (fc): Linear(in_features=20, out_features=1, bias=True) ## ) ## SimpleRNN( ## (rnn): RNN(1, 20, batch_first=True) ## (fc): Linear(in_features=20, out_features=1, bias=True) ## ) ## SimpleRNN( ## (rnn): RNN(1, 20, batch_first=True) ## (fc): Linear(in_features=20, out_features=1, bias=True) ## ) ## SimpleRNN( ## (rnn): RNN(1, 20, batch_first=True) ## (fc): Linear(in_features=20, out_features=1, bias=True) ## ) ## SimpleRNN( ## (rnn): RNN(1, 20, batch_first=True) ## (fc): Linear(in_features=20, out_features=1, bias=True) ## ) ## SimpleRNN( ## (rnn): RNN(1, 20, batch_first=True) ## (fc): Linear(in_features=20, out_features=1, bias=True) ## ) ## SimpleRNN( ## (rnn): RNN(1, 20, batch_first=True) ## (fc): Linear(in_features=20, out_features=1, bias=True) ## ) ## SimpleRNN( ## (rnn): RNN(1, 20, batch_first=True) ## (fc): Linear(in_features=20, out_features=1, bias=True) ## ) ## SimpleRNN( ## (rnn): RNN(1, 20, batch_first=True) ## (fc): Linear(in_features=20, out_features=1, bias=True) ## ) ## SimpleRNN( ## (rnn): RNN(1, 20, batch_first=True) ## (fc): Linear(in_features=20, out_features=1, bias=True) ## ) ## SimpleRNN( ## (rnn): RNN(1, 20, batch_first=True) ## (fc): Linear(in_features=20, out_features=1, bias=True) ## ) ## SimpleRNN( ## (rnn): RNN(1, 20, batch_first=True) ## (fc): Linear(in_features=20, out_features=1, bias=True) ## ) ## SimpleRNN( ## (rnn): RNN(1, 20, batch_first=True) ## (fc): Linear(in_features=20, out_features=1, bias=True) ## ) ## SimpleRNN( ## (rnn): RNN(1, 20, batch_first=True) ## (fc): Linear(in_features=20, out_features=1, bias=True) ## ) ## SimpleRNN( ## (rnn): RNN(1, 20, batch_first=True) ## (fc): Linear(in_features=20, out_features=1, bias=True) ## ) ## SimpleRNN( ## (rnn): RNN(1, 20, batch_first=True) ## (fc): Linear(in_features=20, out_features=1, bias=True) ## ) ## SimpleRNN( ## (rnn): RNN(1, 20, batch_first=True) ## (fc): Linear(in_features=20, out_features=1, bias=True) ## ) ## SimpleRNN( ## (rnn): RNN(1, 20, batch_first=True) ## (fc): Linear(in_features=20, out_features=1, bias=True) ## ) ## SimpleRNN( ## (rnn): RNN(1, 20, batch_first=True) ## (fc): Linear(in_features=20, out_features=1, bias=True) ## ) ## SimpleRNN( ## (rnn): RNN(1, 20, batch_first=True) ## (fc): Linear(in_features=20, out_features=1, bias=True) ## ) ## Loss: 7988.59423828125 ## SimpleRNN( ## (rnn): RNN(1, 20, batch_first=True) ## (fc): Linear(in_features=20, out_features=1, bias=True) ## ) ## SimpleRNN( ## (rnn): RNN(1, 20, batch_first=True) ## (fc): Linear(in_features=20, out_features=1, bias=True) ## ) ## SimpleRNN( ## (rnn): RNN(1, 20, batch_first=True) ## (fc): Linear(in_features=20, out_features=1, bias=True) ## ) ## SimpleRNN( ## (rnn): RNN(1, 20, batch_first=True) ## (fc): Linear(in_features=20, out_features=1, bias=True) ## ) ## SimpleRNN( ## (rnn): RNN(1, 20, batch_first=True) ## (fc): Linear(in_features=20, out_features=1, bias=True) ## ) ## SimpleRNN( ## (rnn): RNN(1, 20, batch_first=True) ## (fc): Linear(in_features=20, out_features=1, bias=True) ## ) ## SimpleRNN( ## (rnn): RNN(1, 20, batch_first=True) ## (fc): Linear(in_features=20, out_features=1, bias=True) ## ) ## SimpleRNN( ## (rnn): RNN(1, 20, batch_first=True) ## (fc): Linear(in_features=20, out_features=1, bias=True) ## ) ## SimpleRNN( ## (rnn): RNN(1, 20, batch_first=True) ## (fc): Linear(in_features=20, out_features=1, bias=True) ## ) ## SimpleRNN( ## (rnn): RNN(1, 20, batch_first=True) ## (fc): Linear(in_features=20, out_features=1, bias=True) ## ) ## SimpleRNN( ## (rnn): RNN(1, 20, batch_first=True) ## (fc): Linear(in_features=20, out_features=1, bias=True) ## ) ## SimpleRNN( ## (rnn): RNN(1, 20, batch_first=True) ## (fc): Linear(in_features=20, out_features=1, bias=True) ## ) ## SimpleRNN( ## (rnn): RNN(1, 20, batch_first=True) ## (fc): Linear(in_features=20, out_features=1, bias=True) ## ) ## SimpleRNN( ## (rnn): RNN(1, 20, batch_first=True) ## (fc): Linear(in_features=20, out_features=1, bias=True) ## ) ## SimpleRNN( ## (rnn): RNN(1, 20, batch_first=True) ## (fc): Linear(in_features=20, out_features=1, bias=True) ## ) ## SimpleRNN( ## (rnn): RNN(1, 20, batch_first=True) ## (fc): Linear(in_features=20, out_features=1, bias=True) ## ) ## SimpleRNN( ## (rnn): RNN(1, 20, batch_first=True) ## (fc): Linear(in_features=20, out_features=1, bias=True) ## ) ## SimpleRNN( ## (rnn): RNN(1, 20, batch_first=True) ## (fc): Linear(in_features=20, out_features=1, bias=True) ## ) ## SimpleRNN( ## (rnn): RNN(1, 20, batch_first=True) ## (fc): Linear(in_features=20, out_features=1, bias=True) ## ) ## SimpleRNN( ## (rnn): RNN(1, 20, batch_first=True) ## (fc): Linear(in_features=20, out_features=1, bias=True) ## ) ## SimpleRNN( ## (rnn): RNN(1, 20, batch_first=True) ## (fc): Linear(in_features=20, out_features=1, bias=True) ## ) ## SimpleRNN( ## (rnn): RNN(1, 20, batch_first=True) ## (fc): Linear(in_features=20, out_features=1, bias=True) ## ) ## SimpleRNN( ## (rnn): RNN(1, 20, batch_first=True) ## (fc): Linear(in_features=20, out_features=1, bias=True) ## ) ## SimpleRNN( ## (rnn): RNN(1, 20, batch_first=True) ## (fc): Linear(in_features=20, out_features=1, bias=True) ## ) ## SimpleRNN( ## (rnn): RNN(1, 20, batch_first=True) ## (fc): Linear(in_features=20, out_features=1, bias=True) ## ) ## SimpleRNN( ## (rnn): RNN(1, 20, batch_first=True) ## (fc): Linear(in_features=20, out_features=1, bias=True) ## ) ## SimpleRNN( ## (rnn): RNN(1, 20, batch_first=True) ## (fc): Linear(in_features=20, out_features=1, bias=True) ## ) ## SimpleRNN( ## (rnn): RNN(1, 20, batch_first=True) ## (fc): Linear(in_features=20, out_features=1, bias=True) ## ) ## SimpleRNN( ## (rnn): RNN(1, 20, batch_first=True) ## (fc): Linear(in_features=20, out_features=1, bias=True) ## ) ## SimpleRNN( ## (rnn): RNN(1, 20, batch_first=True) ## (fc): Linear(in_features=20, out_features=1, bias=True) ## ) ## SimpleRNN( ## (rnn): RNN(1, 20, batch_first=True) ## (fc): Linear(in_features=20, out_features=1, bias=True) ## ) ## SimpleRNN( ## (rnn): RNN(1, 20, batch_first=True) ## (fc): Linear(in_features=20, out_features=1, bias=True) ## ) ## SimpleRNN( ## (rnn): RNN(1, 20, batch_first=True) ## (fc): Linear(in_features=20, out_features=1, bias=True) ## ) ## SimpleRNN( ## (rnn): RNN(1, 20, batch_first=True) ## (fc): Linear(in_features=20, out_features=1, bias=True) ## ) ## SimpleRNN( ## (rnn): RNN(1, 20, batch_first=True) ## (fc): Linear(in_features=20, out_features=1, bias=True) ## ) ## SimpleRNN( ## (rnn): RNN(1, 20, batch_first=True) ## (fc): Linear(in_features=20, out_features=1, bias=True) ## ) ## SimpleRNN( ## (rnn): RNN(1, 20, batch_first=True) ## (fc): Linear(in_features=20, out_features=1, bias=True) ## ) ## SimpleRNN( ## (rnn): RNN(1, 20, batch_first=True) ## (fc): Linear(in_features=20, out_features=1, bias=True) ## ) ## SimpleRNN( ## (rnn): RNN(1, 20, batch_first=True) ## (fc): Linear(in_features=20, out_features=1, bias=True) ## ) ## SimpleRNN( ## (rnn): RNN(1, 20, batch_first=True) ## (fc): Linear(in_features=20, out_features=1, bias=True) ## ) ## SimpleRNN( ## (rnn): RNN(1, 20, batch_first=True) ## (fc): Linear(in_features=20, out_features=1, bias=True) ## ) ## SimpleRNN( ## (rnn): RNN(1, 20, batch_first=True) ## (fc): Linear(in_features=20, out_features=1, bias=True) ## ) ## SimpleRNN( ## (rnn): RNN(1, 20, batch_first=True) ## (fc): Linear(in_features=20, out_features=1, bias=True) ## ) ## SimpleRNN( ## (rnn): RNN(1, 20, batch_first=True) ## (fc): Linear(in_features=20, out_features=1, bias=True) ## ) ## SimpleRNN( ## (rnn): RNN(1, 20, batch_first=True) ## (fc): Linear(in_features=20, out_features=1, bias=True) ## ) ## SimpleRNN( ## (rnn): RNN(1, 20, batch_first=True) ## (fc): Linear(in_features=20, out_features=1, bias=True) ## ) ## SimpleRNN( ## (rnn): RNN(1, 20, batch_first=True) ## (fc): Linear(in_features=20, out_features=1, bias=True) ## ) ## SimpleRNN( ## (rnn): RNN(1, 20, batch_first=True) ## (fc): Linear(in_features=20, out_features=1, bias=True) ## ) ## SimpleRNN( ## (rnn): RNN(1, 20, batch_first=True) ## (fc): Linear(in_features=20, out_features=1, bias=True) ## ) ## SimpleRNN( ## (rnn): RNN(1, 20, batch_first=True) ## (fc): Linear(in_features=20, out_features=1, bias=True) ## ) ## SimpleRNN( ## (rnn): RNN(1, 20, batch_first=True) ## (fc): Linear(in_features=20, out_features=1, bias=True) ## ) ## SimpleRNN( ## (rnn): RNN(1, 20, batch_first=True) ## (fc): Linear(in_features=20, out_features=1, bias=True) ## ) ## SimpleRNN( ## (rnn): RNN(1, 20, batch_first=True) ## (fc): Linear(in_features=20, out_features=1, bias=True) ## ) ## SimpleRNN( ## (rnn): RNN(1, 20, batch_first=True) ## (fc): Linear(in_features=20, out_features=1, bias=True) ## ) ## SimpleRNN( ## (rnn): RNN(1, 20, batch_first=True) ## (fc): Linear(in_features=20, out_features=1, bias=True) ## ) ## SimpleRNN( ## (rnn): RNN(1, 20, batch_first=True) ## (fc): Linear(in_features=20, out_features=1, bias=True) ## ) ## SimpleRNN( ## (rnn): RNN(1, 20, batch_first=True) ## (fc): Linear(in_features=20, out_features=1, bias=True) ## ) ## SimpleRNN( ## (rnn): RNN(1, 20, batch_first=True) ## (fc): Linear(in_features=20, out_features=1, bias=True) ## ) ## SimpleRNN( ## (rnn): RNN(1, 20, batch_first=True) ## (fc): Linear(in_features=20, out_features=1, bias=True) ## ) ## SimpleRNN( ## (rnn): RNN(1, 20, batch_first=True) ## (fc): Linear(in_features=20, out_features=1, bias=True) ## ) ## SimpleRNN( ## (rnn): RNN(1, 20, batch_first=True) ## (fc): Linear(in_features=20, out_features=1, bias=True) ## ) ## SimpleRNN( ## (rnn): RNN(1, 20, batch_first=True) ## (fc): Linear(in_features=20, out_features=1, bias=True) ## ) ## SimpleRNN( ## (rnn): RNN(1, 20, batch_first=True) ## (fc): Linear(in_features=20, out_features=1, bias=True) ## ) ## SimpleRNN( ## (rnn): RNN(1, 20, batch_first=True) ## (fc): Linear(in_features=20, out_features=1, bias=True) ## ) ## SimpleRNN( ## (rnn): RNN(1, 20, batch_first=True) ## (fc): Linear(in_features=20, out_features=1, bias=True) ## ) ## SimpleRNN( ## (rnn): RNN(1, 20, batch_first=True) ## (fc): Linear(in_features=20, out_features=1, bias=True) ## ) ## SimpleRNN( ## (rnn): RNN(1, 20, batch_first=True) ## (fc): Linear(in_features=20, out_features=1, bias=True) ## ) ## SimpleRNN( ## (rnn): RNN(1, 20, batch_first=True) ## (fc): Linear(in_features=20, out_features=1, bias=True) ## ) ## SimpleRNN( ## (rnn): RNN(1, 20, batch_first=True) ## (fc): Linear(in_features=20, out_features=1, bias=True) ## ) ## SimpleRNN( ## (rnn): RNN(1, 20, batch_first=True) ## (fc): Linear(in_features=20, out_features=1, bias=True) ## ) ## SimpleRNN( ## (rnn): RNN(1, 20, batch_first=True) ## (fc): Linear(in_features=20, out_features=1, bias=True) ## ) ## SimpleRNN( ## (rnn): RNN(1, 20, batch_first=True) ## (fc): Linear(in_features=20, out_features=1, bias=True) ## ) ## SimpleRNN( ## (rnn): RNN(1, 20, batch_first=True) ## (fc): Linear(in_features=20, out_features=1, bias=True) ## ) ## SimpleRNN( ## (rnn): RNN(1, 20, batch_first=True) ## (fc): Linear(in_features=20, out_features=1, bias=True) ## ) ## SimpleRNN( ## (rnn): RNN(1, 20, batch_first=True) ## (fc): Linear(in_features=20, out_features=1, bias=True) ## ) ## SimpleRNN( ## (rnn): RNN(1, 20, batch_first=True) ## (fc): Linear(in_features=20, out_features=1, bias=True) ## ) ## SimpleRNN( ## (rnn): RNN(1, 20, batch_first=True) ## (fc): Linear(in_features=20, out_features=1, bias=True) ## ) ## SimpleRNN( ## (rnn): RNN(1, 20, batch_first=True) ## (fc): Linear(in_features=20, out_features=1, bias=True) ## ) ## SimpleRNN( ## (rnn): RNN(1, 20, batch_first=True) ## (fc): Linear(in_features=20, out_features=1, bias=True) ## ) ## SimpleRNN( ## (rnn): RNN(1, 20, batch_first=True) ## (fc): Linear(in_features=20, out_features=1, bias=True) ## ) ## SimpleRNN( ## (rnn): RNN(1, 20, batch_first=True) ## (fc): Linear(in_features=20, out_features=1, bias=True) ## ) ## SimpleRNN( ## (rnn): RNN(1, 20, batch_first=True) ## (fc): Linear(in_features=20, out_features=1, bias=True) ## ) ## SimpleRNN( ## (rnn): RNN(1, 20, batch_first=True) ## (fc): Linear(in_features=20, out_features=1, bias=True) ## ) ## SimpleRNN( ## (rnn): RNN(1, 20, batch_first=True) ## (fc): Linear(in_features=20, out_features=1, bias=True) ## ) ## SimpleRNN( ## (rnn): RNN(1, 20, batch_first=True) ## (fc): Linear(in_features=20, out_features=1, bias=True) ## ) ## SimpleRNN( ## (rnn): RNN(1, 20, batch_first=True) ## (fc): Linear(in_features=20, out_features=1, bias=True) ## ) ## SimpleRNN( ## (rnn): RNN(1, 20, batch_first=True) ## (fc): Linear(in_features=20, out_features=1, bias=True) ## ) ## SimpleRNN( ## (rnn): RNN(1, 20, batch_first=True) ## (fc): Linear(in_features=20, out_features=1, bias=True) ## ) ## SimpleRNN( ## (rnn): RNN(1, 20, batch_first=True) ## (fc): Linear(in_features=20, out_features=1, bias=True) ## ) ## SimpleRNN( ## (rnn): RNN(1, 20, batch_first=True) ## (fc): Linear(in_features=20, out_features=1, bias=True) ## ) ## SimpleRNN( ## (rnn): RNN(1, 20, batch_first=True) ## (fc): Linear(in_features=20, out_features=1, bias=True) ## ) ## SimpleRNN( ## (rnn): RNN(1, 20, batch_first=True) ## (fc): Linear(in_features=20, out_features=1, bias=True) ## ) ## SimpleRNN( ## (rnn): RNN(1, 20, batch_first=True) ## (fc): Linear(in_features=20, out_features=1, bias=True) ## ) ## SimpleRNN( ## (rnn): RNN(1, 20, batch_first=True) ## (fc): Linear(in_features=20, out_features=1, bias=True) ## ) ## SimpleRNN( ## (rnn): RNN(1, 20, batch_first=True) ## (fc): Linear(in_features=20, out_features=1, bias=True) ## ) ## SimpleRNN( ## (rnn): RNN(1, 20, batch_first=True) ## (fc): Linear(in_features=20, out_features=1, bias=True) ## ) ## SimpleRNN( ## (rnn): RNN(1, 20, batch_first=True) ## (fc): Linear(in_features=20, out_features=1, bias=True) ## ) ## SimpleRNN( ## (rnn): RNN(1, 20, batch_first=True) ## (fc): Linear(in_features=20, out_features=1, bias=True) ## ) ## SimpleRNN( ## (rnn): RNN(1, 20, batch_first=True) ## (fc): Linear(in_features=20, out_features=1, bias=True) ## ) ## SimpleRNN( ## (rnn): RNN(1, 20, batch_first=True) ## (fc): Linear(in_features=20, out_features=1, bias=True) ## ) ## Loss: 4210.06787109375 ## SimpleRNN( ## (rnn): RNN(1, 20, batch_first=True) ## (fc): Linear(in_features=20, out_features=1, bias=True) ## ) ## SimpleRNN( ## (rnn): RNN(1, 20, batch_first=True) ## (fc): Linear(in_features=20, out_features=1, bias=True) ## ) ## SimpleRNN( ## (rnn): RNN(1, 20, batch_first=True) ## (fc): Linear(in_features=20, out_features=1, bias=True) ## ) ## SimpleRNN( ## (rnn): RNN(1, 20, batch_first=True) ## (fc): Linear(in_features=20, out_features=1, bias=True) ## ) ## SimpleRNN( ## (rnn): RNN(1, 20, batch_first=True) ## (fc): Linear(in_features=20, out_features=1, bias=True) ## ) ## SimpleRNN( ## (rnn): RNN(1, 20, batch_first=True) ## (fc): Linear(in_features=20, out_features=1, bias=True) ## ) ## SimpleRNN( ## (rnn): RNN(1, 20, batch_first=True) ## (fc): Linear(in_features=20, out_features=1, bias=True) ## ) ## SimpleRNN( ## (rnn): RNN(1, 20, batch_first=True) ## (fc): Linear(in_features=20, out_features=1, bias=True) ## ) ## SimpleRNN( ## (rnn): RNN(1, 20, batch_first=True) ## (fc): Linear(in_features=20, out_features=1, bias=True) ## ) ## SimpleRNN( ## (rnn): RNN(1, 20, batch_first=True) ## (fc): Linear(in_features=20, out_features=1, bias=True) ## ) ## SimpleRNN( ## (rnn): RNN(1, 20, batch_first=True) ## (fc): Linear(in_features=20, out_features=1, bias=True) ## ) ## SimpleRNN( ## (rnn): RNN(1, 20, batch_first=True) ## (fc): Linear(in_features=20, out_features=1, bias=True) ## ) ## SimpleRNN( ## (rnn): RNN(1, 20, batch_first=True) ## (fc): Linear(in_features=20, out_features=1, bias=True) ## ) ## SimpleRNN( ## (rnn): RNN(1, 20, batch_first=True) ## (fc): Linear(in_features=20, out_features=1, bias=True) ## ) ## SimpleRNN( ## (rnn): RNN(1, 20, batch_first=True) ## (fc): Linear(in_features=20, out_features=1, bias=True) ## ) ## SimpleRNN( ## (rnn): RNN(1, 20, batch_first=True) ## (fc): Linear(in_features=20, out_features=1, bias=True) ## ) ## SimpleRNN( ## (rnn): RNN(1, 20, batch_first=True) ## (fc): Linear(in_features=20, out_features=1, bias=True) ## ) ## SimpleRNN( ## (rnn): RNN(1, 20, batch_first=True) ## (fc): Linear(in_features=20, out_features=1, bias=True) ## ) ## SimpleRNN( ## (rnn): RNN(1, 20, batch_first=True) ## (fc): Linear(in_features=20, out_features=1, bias=True) ## ) ## SimpleRNN( ## (rnn): RNN(1, 20, batch_first=True) ## (fc): Linear(in_features=20, out_features=1, bias=True) ## ) ## SimpleRNN( ## (rnn): RNN(1, 20, batch_first=True) ## (fc): Linear(in_features=20, out_features=1, bias=True) ## ) ## SimpleRNN( ## (rnn): RNN(1, 20, batch_first=True) ## (fc): Linear(in_features=20, out_features=1, bias=True) ## ) ## SimpleRNN( ## (rnn): RNN(1, 20, batch_first=True) ## (fc): Linear(in_features=20, out_features=1, bias=True) ## ) ## SimpleRNN( ## (rnn): RNN(1, 20, batch_first=True) ## (fc): Linear(in_features=20, out_features=1, bias=True) ## ) ## SimpleRNN( ## (rnn): RNN(1, 20, batch_first=True) ## (fc): Linear(in_features=20, out_features=1, bias=True) ## ) ## SimpleRNN( ## (rnn): RNN(1, 20, batch_first=True) ## (fc): Linear(in_features=20, out_features=1, bias=True) ## ) ## SimpleRNN( ## (rnn): RNN(1, 20, batch_first=True) ## (fc): Linear(in_features=20, out_features=1, bias=True) ## ) ## SimpleRNN( ## (rnn): RNN(1, 20, batch_first=True) ## (fc): Linear(in_features=20, out_features=1, bias=True) ## ) ## SimpleRNN( ## (rnn): RNN(1, 20, batch_first=True) ## (fc): Linear(in_features=20, out_features=1, bias=True) ## ) ## SimpleRNN( ## (rnn): RNN(1, 20, batch_first=True) ## (fc): Linear(in_features=20, out_features=1, bias=True) ## ) ## SimpleRNN( ## (rnn): RNN(1, 20, batch_first=True) ## (fc): Linear(in_features=20, out_features=1, bias=True) ## ) ## SimpleRNN( ## (rnn): RNN(1, 20, batch_first=True) ## (fc): Linear(in_features=20, out_features=1, bias=True) ## ) ## SimpleRNN( ## (rnn): RNN(1, 20, batch_first=True) ## (fc): Linear(in_features=20, out_features=1, bias=True) ## ) ## SimpleRNN( ## (rnn): RNN(1, 20, batch_first=True) ## (fc): Linear(in_features=20, out_features=1, bias=True) ## ) ## SimpleRNN( ## (rnn): RNN(1, 20, batch_first=True) ## (fc): Linear(in_features=20, out_features=1, bias=True) ## ) ## SimpleRNN( ## (rnn): RNN(1, 20, batch_first=True) ## (fc): Linear(in_features=20, out_features=1, bias=True) ## ) ## SimpleRNN( ## (rnn): RNN(1, 20, batch_first=True) ## (fc): Linear(in_features=20, out_features=1, bias=True) ## ) ## SimpleRNN( ## (rnn): RNN(1, 20, batch_first=True) ## (fc): Linear(in_features=20, out_features=1, bias=True) ## ) ## SimpleRNN( ## (rnn): RNN(1, 20, batch_first=True) ## (fc): Linear(in_features=20, out_features=1, bias=True) ## ) ## SimpleRNN( ## (rnn): RNN(1, 20, batch_first=True) ## (fc): Linear(in_features=20, out_features=1, bias=True) ## ) ## SimpleRNN( ## (rnn): RNN(1, 20, batch_first=True) ## (fc): Linear(in_features=20, out_features=1, bias=True) ## ) ## SimpleRNN( ## (rnn): RNN(1, 20, batch_first=True) ## (fc): Linear(in_features=20, out_features=1, bias=True) ## ) ## SimpleRNN( ## (rnn): RNN(1, 20, batch_first=True) ## (fc): Linear(in_features=20, out_features=1, bias=True) ## ) ## SimpleRNN( ## (rnn): RNN(1, 20, batch_first=True) ## (fc): Linear(in_features=20, out_features=1, bias=True) ## ) ## SimpleRNN( ## (rnn): RNN(1, 20, batch_first=True) ## (fc): Linear(in_features=20, out_features=1, bias=True) ## ) ## SimpleRNN( ## (rnn): RNN(1, 20, batch_first=True) ## (fc): Linear(in_features=20, out_features=1, bias=True) ## ) ## SimpleRNN( ## (rnn): RNN(1, 20, batch_first=True) ## (fc): Linear(in_features=20, out_features=1, bias=True) ## ) ## SimpleRNN( ## (rnn): RNN(1, 20, batch_first=True) ## (fc): Linear(in_features=20, out_features=1, bias=True) ## ) ## SimpleRNN( ## (rnn): RNN(1, 20, batch_first=True) ## (fc): Linear(in_features=20, out_features=1, bias=True) ## ) ## SimpleRNN( ## (rnn): RNN(1, 20, batch_first=True) ## (fc): Linear(in_features=20, out_features=1, bias=True) ## ) ## SimpleRNN( ## (rnn): RNN(1, 20, batch_first=True) ## (fc): Linear(in_features=20, out_features=1, bias=True) ## ) ## SimpleRNN( ## (rnn): RNN(1, 20, batch_first=True) ## (fc): Linear(in_features=20, out_features=1, bias=True) ## ) ## SimpleRNN( ## (rnn): RNN(1, 20, batch_first=True) ## (fc): Linear(in_features=20, out_features=1, bias=True) ## ) ## SimpleRNN( ## (rnn): RNN(1, 20, batch_first=True) ## (fc): Linear(in_features=20, out_features=1, bias=True) ## ) ## SimpleRNN( ## (rnn): RNN(1, 20, batch_first=True) ## (fc): Linear(in_features=20, out_features=1, bias=True) ## ) ## SimpleRNN( ## (rnn): RNN(1, 20, batch_first=True) ## (fc): Linear(in_features=20, out_features=1, bias=True) ## ) ## SimpleRNN( ## (rnn): RNN(1, 20, batch_first=True) ## (fc): Linear(in_features=20, out_features=1, bias=True) ## ) ## SimpleRNN( ## (rnn): RNN(1, 20, batch_first=True) ## (fc): Linear(in_features=20, out_features=1, bias=True) ## ) ## SimpleRNN( ## (rnn): RNN(1, 20, batch_first=True) ## (fc): Linear(in_features=20, out_features=1, bias=True) ## ) ## SimpleRNN( ## (rnn): RNN(1, 20, batch_first=True) ## (fc): Linear(in_features=20, out_features=1, bias=True) ## ) ## SimpleRNN( ## (rnn): RNN(1, 20, batch_first=True) ## (fc): Linear(in_features=20, out_features=1, bias=True) ## ) ## SimpleRNN( ## (rnn): RNN(1, 20, batch_first=True) ## (fc): Linear(in_features=20, out_features=1, bias=True) ## ) ## SimpleRNN( ## (rnn): RNN(1, 20, batch_first=True) ## (fc): Linear(in_features=20, out_features=1, bias=True) ## ) ## SimpleRNN( ## (rnn): RNN(1, 20, batch_first=True) ## (fc): Linear(in_features=20, out_features=1, bias=True) ## ) ## SimpleRNN( ## (rnn): RNN(1, 20, batch_first=True) ## (fc): Linear(in_features=20, out_features=1, bias=True) ## ) ## SimpleRNN( ## (rnn): RNN(1, 20, batch_first=True) ## (fc): Linear(in_features=20, out_features=1, bias=True) ## ) ## SimpleRNN( ## (rnn): RNN(1, 20, batch_first=True) ## (fc): Linear(in_features=20, out_features=1, bias=True) ## ) ## SimpleRNN( ## (rnn): RNN(1, 20, batch_first=True) ## (fc): Linear(in_features=20, out_features=1, bias=True) ## ) ## SimpleRNN( ## (rnn): RNN(1, 20, batch_first=True) ## (fc): Linear(in_features=20, out_features=1, bias=True) ## ) ## SimpleRNN( ## (rnn): RNN(1, 20, batch_first=True) ## (fc): Linear(in_features=20, out_features=1, bias=True) ## ) ## SimpleRNN( ## (rnn): RNN(1, 20, batch_first=True) ## (fc): Linear(in_features=20, out_features=1, bias=True) ## ) ## SimpleRNN( ## (rnn): RNN(1, 20, batch_first=True) ## (fc): Linear(in_features=20, out_features=1, bias=True) ## ) ## SimpleRNN( ## (rnn): RNN(1, 20, batch_first=True) ## (fc): Linear(in_features=20, out_features=1, bias=True) ## ) ## SimpleRNN( ## (rnn): RNN(1, 20, batch_first=True) ## (fc): Linear(in_features=20, out_features=1, bias=True) ## ) ## SimpleRNN( ## (rnn): RNN(1, 20, batch_first=True) ## (fc): Linear(in_features=20, out_features=1, bias=True) ## ) ## SimpleRNN( ## (rnn): RNN(1, 20, batch_first=True) ## (fc): Linear(in_features=20, out_features=1, bias=True) ## ) ## SimpleRNN( ## (rnn): RNN(1, 20, batch_first=True) ## (fc): Linear(in_features=20, out_features=1, bias=True) ## ) ## SimpleRNN( ## (rnn): RNN(1, 20, batch_first=True) ## (fc): Linear(in_features=20, out_features=1, bias=True) ## ) ## SimpleRNN( ## (rnn): RNN(1, 20, batch_first=True) ## (fc): Linear(in_features=20, out_features=1, bias=True) ## ) ## SimpleRNN( ## (rnn): RNN(1, 20, batch_first=True) ## (fc): Linear(in_features=20, out_features=1, bias=True) ## ) ## SimpleRNN( ## (rnn): RNN(1, 20, batch_first=True) ## (fc): Linear(in_features=20, out_features=1, bias=True) ## ) ## SimpleRNN( ## (rnn): RNN(1, 20, batch_first=True) ## (fc): Linear(in_features=20, out_features=1, bias=True) ## ) ## SimpleRNN( ## (rnn): RNN(1, 20, batch_first=True) ## (fc): Linear(in_features=20, out_features=1, bias=True) ## ) ## SimpleRNN( ## (rnn): RNN(1, 20, batch_first=True) ## (fc): Linear(in_features=20, out_features=1, bias=True) ## ) ## SimpleRNN( ## (rnn): RNN(1, 20, batch_first=True) ## (fc): Linear(in_features=20, out_features=1, bias=True) ## ) ## SimpleRNN( ## (rnn): RNN(1, 20, batch_first=True) ## (fc): Linear(in_features=20, out_features=1, bias=True) ## ) ## SimpleRNN( ## (rnn): RNN(1, 20, batch_first=True) ## (fc): Linear(in_features=20, out_features=1, bias=True) ## ) ## SimpleRNN( ## (rnn): RNN(1, 20, batch_first=True) ## (fc): Linear(in_features=20, out_features=1, bias=True) ## ) ## SimpleRNN( ## (rnn): RNN(1, 20, batch_first=True) ## (fc): Linear(in_features=20, out_features=1, bias=True) ## ) ## SimpleRNN( ## (rnn): RNN(1, 20, batch_first=True) ## (fc): Linear(in_features=20, out_features=1, bias=True) ## ) ## SimpleRNN( ## (rnn): RNN(1, 20, batch_first=True) ## (fc): Linear(in_features=20, out_features=1, bias=True) ## ) ## SimpleRNN( ## (rnn): RNN(1, 20, batch_first=True) ## (fc): Linear(in_features=20, out_features=1, bias=True) ## ) ## SimpleRNN( ## (rnn): RNN(1, 20, batch_first=True) ## (fc): Linear(in_features=20, out_features=1, bias=True) ## ) ## SimpleRNN( ## (rnn): RNN(1, 20, batch_first=True) ## (fc): Linear(in_features=20, out_features=1, bias=True) ## ) ## SimpleRNN( ## (rnn): RNN(1, 20, batch_first=True) ## (fc): Linear(in_features=20, out_features=1, bias=True) ## ) ## SimpleRNN( ## (rnn): RNN(1, 20, batch_first=True) ## (fc): Linear(in_features=20, out_features=1, bias=True) ## ) ## SimpleRNN( ## (rnn): RNN(1, 20, batch_first=True) ## (fc): Linear(in_features=20, out_features=1, bias=True) ## ) ## SimpleRNN( ## (rnn): RNN(1, 20, batch_first=True) ## (fc): Linear(in_features=20, out_features=1, bias=True) ## ) ## SimpleRNN( ## (rnn): RNN(1, 20, batch_first=True) ## (fc): Linear(in_features=20, out_features=1, bias=True) ## ) ## SimpleRNN( ## (rnn): RNN(1, 20, batch_first=True) ## (fc): Linear(in_features=20, out_features=1, bias=True) ## ) ## Loss: 1375.8560791015625 ## SimpleRNN( ## (rnn): RNN(1, 20, batch_first=True) ## (fc): Linear(in_features=20, out_features=1, bias=True) ## ) ## SimpleRNN( ## (rnn): RNN(1, 20, batch_first=True) ## (fc): Linear(in_features=20, out_features=1, bias=True) ## ) ## SimpleRNN( ## (rnn): RNN(1, 20, batch_first=True) ## (fc): Linear(in_features=20, out_features=1, bias=True) ## ) ## SimpleRNN( ## (rnn): RNN(1, 20, batch_first=True) ## (fc): Linear(in_features=20, out_features=1, bias=True) ## ) ## SimpleRNN( ## (rnn): RNN(1, 20, batch_first=True) ## (fc): Linear(in_features=20, out_features=1, bias=True) ## ) ## SimpleRNN( ## (rnn): RNN(1, 20, batch_first=True) ## (fc): Linear(in_features=20, out_features=1, bias=True) ## ) ## SimpleRNN( ## (rnn): RNN(1, 20, batch_first=True) ## (fc): Linear(in_features=20, out_features=1, bias=True) ## ) ## SimpleRNN( ## (rnn): RNN(1, 20, batch_first=True) ## (fc): Linear(in_features=20, out_features=1, bias=True) ## ) ## SimpleRNN( ## (rnn): RNN(1, 20, batch_first=True) ## (fc): Linear(in_features=20, out_features=1, bias=True) ## ) ## SimpleRNN( ## (rnn): RNN(1, 20, batch_first=True) ## (fc): Linear(in_features=20, out_features=1, bias=True) ## ) ## SimpleRNN( ## (rnn): RNN(1, 20, batch_first=True) ## (fc): Linear(in_features=20, out_features=1, bias=True) ## ) ## SimpleRNN( ## (rnn): RNN(1, 20, batch_first=True) ## (fc): Linear(in_features=20, out_features=1, bias=True) ## ) ## SimpleRNN( ## (rnn): RNN(1, 20, batch_first=True) ## (fc): Linear(in_features=20, out_features=1, bias=True) ## ) ## SimpleRNN( ## (rnn): RNN(1, 20, batch_first=True) ## (fc): Linear(in_features=20, out_features=1, bias=True) ## ) ## SimpleRNN( ## (rnn): RNN(1, 20, batch_first=True) ## (fc): Linear(in_features=20, out_features=1, bias=True) ## ) ## SimpleRNN( ## (rnn): RNN(1, 20, batch_first=True) ## (fc): Linear(in_features=20, out_features=1, bias=True) ## ) ## SimpleRNN( ## (rnn): RNN(1, 20, batch_first=True) ## (fc): Linear(in_features=20, out_features=1, bias=True) ## ) ## SimpleRNN( ## (rnn): RNN(1, 20, batch_first=True) ## (fc): Linear(in_features=20, out_features=1, bias=True) ## ) ## SimpleRNN( ## (rnn): RNN(1, 20, batch_first=True) ## (fc): Linear(in_features=20, out_features=1, bias=True) ## ) ## SimpleRNN( ## (rnn): RNN(1, 20, batch_first=True) ## (fc): Linear(in_features=20, out_features=1, bias=True) ## ) ## SimpleRNN( ## (rnn): RNN(1, 20, batch_first=True) ## (fc): Linear(in_features=20, out_features=1, bias=True) ## ) ## SimpleRNN( ## (rnn): RNN(1, 20, batch_first=True) ## (fc): Linear(in_features=20, out_features=1, bias=True) ## ) ## SimpleRNN( ## (rnn): RNN(1, 20, batch_first=True) ## (fc): Linear(in_features=20, out_features=1, bias=True) ## ) ## SimpleRNN( ## (rnn): RNN(1, 20, batch_first=True) ## (fc): Linear(in_features=20, out_features=1, bias=True) ## ) ## SimpleRNN( ## (rnn): RNN(1, 20, batch_first=True) ## (fc): Linear(in_features=20, out_features=1, bias=True) ## ) ## SimpleRNN( ## (rnn): RNN(1, 20, batch_first=True) ## (fc): Linear(in_features=20, out_features=1, bias=True) ## ) ## SimpleRNN( ## (rnn): RNN(1, 20, batch_first=True) ## (fc): Linear(in_features=20, out_features=1, bias=True) ## ) ## SimpleRNN( ## (rnn): RNN(1, 20, batch_first=True) ## (fc): Linear(in_features=20, out_features=1, bias=True) ## ) ## SimpleRNN( ## (rnn): RNN(1, 20, batch_first=True) ## (fc): Linear(in_features=20, out_features=1, bias=True) ## ) ## SimpleRNN( ## (rnn): RNN(1, 20, batch_first=True) ## (fc): Linear(in_features=20, out_features=1, bias=True) ## ) ## SimpleRNN( ## (rnn): RNN(1, 20, batch_first=True) ## (fc): Linear(in_features=20, out_features=1, bias=True) ## ) ## SimpleRNN( ## (rnn): RNN(1, 20, batch_first=True) ## (fc): Linear(in_features=20, out_features=1, bias=True) ## ) ## SimpleRNN( ## (rnn): RNN(1, 20, batch_first=True) ## (fc): Linear(in_features=20, out_features=1, bias=True) ## ) ## SimpleRNN( ## (rnn): RNN(1, 20, batch_first=True) ## (fc): Linear(in_features=20, out_features=1, bias=True) ## ) ## SimpleRNN( ## (rnn): RNN(1, 20, batch_first=True) ## (fc): Linear(in_features=20, out_features=1, bias=True) ## ) ## SimpleRNN( ## (rnn): RNN(1, 20, batch_first=True) ## (fc): Linear(in_features=20, out_features=1, bias=True) ## ) ## SimpleRNN( ## (rnn): RNN(1, 20, batch_first=True) ## (fc): Linear(in_features=20, out_features=1, bias=True) ## ) ## SimpleRNN( ## (rnn): RNN(1, 20, batch_first=True) ## (fc): Linear(in_features=20, out_features=1, bias=True) ## ) ## SimpleRNN( ## (rnn): RNN(1, 20, batch_first=True) ## (fc): Linear(in_features=20, out_features=1, bias=True) ## ) ## SimpleRNN( ## (rnn): RNN(1, 20, batch_first=True) ## (fc): Linear(in_features=20, out_features=1, bias=True) ## ) ## SimpleRNN( ## (rnn): RNN(1, 20, batch_first=True) ## (fc): Linear(in_features=20, out_features=1, bias=True) ## ) ## SimpleRNN( ## (rnn): RNN(1, 20, batch_first=True) ## (fc): Linear(in_features=20, out_features=1, bias=True) ## ) ## SimpleRNN( ## (rnn): RNN(1, 20, batch_first=True) ## (fc): Linear(in_features=20, out_features=1, bias=True) ## ) ## SimpleRNN( ## (rnn): RNN(1, 20, batch_first=True) ## (fc): Linear(in_features=20, out_features=1, bias=True) ## ) ## SimpleRNN( ## (rnn): RNN(1, 20, batch_first=True) ## (fc): Linear(in_features=20, out_features=1, bias=True) ## ) ## SimpleRNN( ## (rnn): RNN(1, 20, batch_first=True) ## (fc): Linear(in_features=20, out_features=1, bias=True) ## ) ## SimpleRNN( ## (rnn): RNN(1, 20, batch_first=True) ## (fc): Linear(in_features=20, out_features=1, bias=True) ## ) ## SimpleRNN( ## (rnn): RNN(1, 20, batch_first=True) ## (fc): Linear(in_features=20, out_features=1, bias=True) ## ) ## SimpleRNN( ## (rnn): RNN(1, 20, batch_first=True) ## (fc): Linear(in_features=20, out_features=1, bias=True) ## ) ## SimpleRNN( ## (rnn): RNN(1, 20, batch_first=True) ## (fc): Linear(in_features=20, out_features=1, bias=True) ## ) ## SimpleRNN( ## (rnn): RNN(1, 20, batch_first=True) ## (fc): Linear(in_features=20, out_features=1, bias=True) ## ) ## SimpleRNN( ## (rnn): RNN(1, 20, batch_first=True) ## (fc): Linear(in_features=20, out_features=1, bias=True) ## ) ## SimpleRNN( ## (rnn): RNN(1, 20, batch_first=True) ## (fc): Linear(in_features=20, out_features=1, bias=True) ## ) ## SimpleRNN( ## (rnn): RNN(1, 20, batch_first=True) ## (fc): Linear(in_features=20, out_features=1, bias=True) ## ) ## SimpleRNN( ## (rnn): RNN(1, 20, batch_first=True) ## (fc): Linear(in_features=20, out_features=1, bias=True) ## ) ## SimpleRNN( ## (rnn): RNN(1, 20, batch_first=True) ## (fc): Linear(in_features=20, out_features=1, bias=True) ## ) ## SimpleRNN( ## (rnn): RNN(1, 20, batch_first=True) ## (fc): Linear(in_features=20, out_features=1, bias=True) ## ) ## SimpleRNN( ## (rnn): RNN(1, 20, batch_first=True) ## (fc): Linear(in_features=20, out_features=1, bias=True) ## ) ## SimpleRNN( ## (rnn): RNN(1, 20, batch_first=True) ## (fc): Linear(in_features=20, out_features=1, bias=True) ## ) ## SimpleRNN( ## (rnn): RNN(1, 20, batch_first=True) ## (fc): Linear(in_features=20, out_features=1, bias=True) ## ) ## SimpleRNN( ## (rnn): RNN(1, 20, batch_first=True) ## (fc): Linear(in_features=20, out_features=1, bias=True) ## ) ## SimpleRNN( ## (rnn): RNN(1, 20, batch_first=True) ## (fc): Linear(in_features=20, out_features=1, bias=True) ## ) ## SimpleRNN( ## (rnn): RNN(1, 20, batch_first=True) ## (fc): Linear(in_features=20, out_features=1, bias=True) ## ) ## SimpleRNN( ## (rnn): RNN(1, 20, batch_first=True) ## (fc): Linear(in_features=20, out_features=1, bias=True) ## ) ## SimpleRNN( ## (rnn): RNN(1, 20, batch_first=True) ## (fc): Linear(in_features=20, out_features=1, bias=True) ## ) ## SimpleRNN( ## (rnn): RNN(1, 20, batch_first=True) ## (fc): Linear(in_features=20, out_features=1, bias=True) ## ) ## SimpleRNN( ## (rnn): RNN(1, 20, batch_first=True) ## (fc): Linear(in_features=20, out_features=1, bias=True) ## ) ## SimpleRNN( ## (rnn): RNN(1, 20, batch_first=True) ## (fc): Linear(in_features=20, out_features=1, bias=True) ## ) ## SimpleRNN( ## (rnn): RNN(1, 20, batch_first=True) ## (fc): Linear(in_features=20, out_features=1, bias=True) ## ) ## SimpleRNN( ## (rnn): RNN(1, 20, batch_first=True) ## (fc): Linear(in_features=20, out_features=1, bias=True) ## ) ## SimpleRNN( ## (rnn): RNN(1, 20, batch_first=True) ## (fc): Linear(in_features=20, out_features=1, bias=True) ## ) ## SimpleRNN( ## (rnn): RNN(1, 20, batch_first=True) ## (fc): Linear(in_features=20, out_features=1, bias=True) ## ) ## SimpleRNN( ## (rnn): RNN(1, 20, batch_first=True) ## (fc): Linear(in_features=20, out_features=1, bias=True) ## ) ## SimpleRNN( ## (rnn): RNN(1, 20, batch_first=True) ## (fc): Linear(in_features=20, out_features=1, bias=True) ## ) ## SimpleRNN( ## (rnn): RNN(1, 20, batch_first=True) ## (fc): Linear(in_features=20, out_features=1, bias=True) ## ) ## SimpleRNN( ## (rnn): RNN(1, 20, batch_first=True) ## (fc): Linear(in_features=20, out_features=1, bias=True) ## ) ## SimpleRNN( ## (rnn): RNN(1, 20, batch_first=True) ## (fc): Linear(in_features=20, out_features=1, bias=True) ## ) ## SimpleRNN( ## (rnn): RNN(1, 20, batch_first=True) ## (fc): Linear(in_features=20, out_features=1, bias=True) ## ) ## SimpleRNN( ## (rnn): RNN(1, 20, batch_first=True) ## (fc): Linear(in_features=20, out_features=1, bias=True) ## ) ## SimpleRNN( ## (rnn): RNN(1, 20, batch_first=True) ## (fc): Linear(in_features=20, out_features=1, bias=True) ## ) ## SimpleRNN( ## (rnn): RNN(1, 20, batch_first=True) ## (fc): Linear(in_features=20, out_features=1, bias=True) ## ) ## SimpleRNN( ## (rnn): RNN(1, 20, batch_first=True) ## (fc): Linear(in_features=20, out_features=1, bias=True) ## ) ## SimpleRNN( ## (rnn): RNN(1, 20, batch_first=True) ## (fc): Linear(in_features=20, out_features=1, bias=True) ## ) ## SimpleRNN( ## (rnn): RNN(1, 20, batch_first=True) ## (fc): Linear(in_features=20, out_features=1, bias=True) ## ) ## SimpleRNN( ## (rnn): RNN(1, 20, batch_first=True) ## (fc): Linear(in_features=20, out_features=1, bias=True) ## ) ## SimpleRNN( ## (rnn): RNN(1, 20, batch_first=True) ## (fc): Linear(in_features=20, out_features=1, bias=True) ## ) ## SimpleRNN( ## (rnn): RNN(1, 20, batch_first=True) ## (fc): Linear(in_features=20, out_features=1, bias=True) ## ) ## SimpleRNN( ## (rnn): RNN(1, 20, batch_first=True) ## (fc): Linear(in_features=20, out_features=1, bias=True) ## ) ## SimpleRNN( ## (rnn): RNN(1, 20, batch_first=True) ## (fc): Linear(in_features=20, out_features=1, bias=True) ## ) ## SimpleRNN( ## (rnn): RNN(1, 20, batch_first=True) ## (fc): Linear(in_features=20, out_features=1, bias=True) ## ) ## SimpleRNN( ## (rnn): RNN(1, 20, batch_first=True) ## (fc): Linear(in_features=20, out_features=1, bias=True) ## ) ## SimpleRNN( ## (rnn): RNN(1, 20, batch_first=True) ## (fc): Linear(in_features=20, out_features=1, bias=True) ## ) ## SimpleRNN( ## (rnn): RNN(1, 20, batch_first=True) ## (fc): Linear(in_features=20, out_features=1, bias=True) ## ) ## SimpleRNN( ## (rnn): RNN(1, 20, batch_first=True) ## (fc): Linear(in_features=20, out_features=1, bias=True) ## ) ## SimpleRNN( ## (rnn): RNN(1, 20, batch_first=True) ## (fc): Linear(in_features=20, out_features=1, bias=True) ## ) ## SimpleRNN( ## (rnn): RNN(1, 20, batch_first=True) ## (fc): Linear(in_features=20, out_features=1, bias=True) ## ) ## SimpleRNN( ## (rnn): RNN(1, 20, batch_first=True) ## (fc): Linear(in_features=20, out_features=1, bias=True) ## ) ## SimpleRNN( ## (rnn): RNN(1, 20, batch_first=True) ## (fc): Linear(in_features=20, out_features=1, bias=True) ## ) ## SimpleRNN( ## (rnn): RNN(1, 20, batch_first=True) ## (fc): Linear(in_features=20, out_features=1, bias=True) ## ) ## SimpleRNN( ## (rnn): RNN(1, 20, batch_first=True) ## (fc): Linear(in_features=20, out_features=1, bias=True) ## ) ## Loss: 1811.3746337890625 ## SimpleRNN( ## (rnn): RNN(1, 20, batch_first=True) ## (fc): Linear(in_features=20, out_features=1, bias=True) ## ) ## SimpleRNN( ## (rnn): RNN(1, 20, batch_first=True) ## (fc): Linear(in_features=20, out_features=1, bias=True) ## ) ## SimpleRNN( ## (rnn): RNN(1, 20, batch_first=True) ## (fc): Linear(in_features=20, out_features=1, bias=True) ## ) ## SimpleRNN( ## (rnn): RNN(1, 20, batch_first=True) ## (fc): Linear(in_features=20, out_features=1, bias=True) ## ) ## SimpleRNN( ## (rnn): RNN(1, 20, batch_first=True) ## (fc): Linear(in_features=20, out_features=1, bias=True) ## ) ## SimpleRNN( ## (rnn): RNN(1, 20, batch_first=True) ## (fc): Linear(in_features=20, out_features=1, bias=True) ## ) ## SimpleRNN( ## (rnn): RNN(1, 20, batch_first=True) ## (fc): Linear(in_features=20, out_features=1, bias=True) ## ) ## SimpleRNN( ## (rnn): RNN(1, 20, batch_first=True) ## (fc): Linear(in_features=20, out_features=1, bias=True) ## ) ## SimpleRNN( ## (rnn): RNN(1, 20, batch_first=True) ## (fc): Linear(in_features=20, out_features=1, bias=True) ## ) ## SimpleRNN( ## (rnn): RNN(1, 20, batch_first=True) ## (fc): Linear(in_features=20, out_features=1, bias=True) ## ) ## SimpleRNN( ## (rnn): RNN(1, 20, batch_first=True) ## (fc): Linear(in_features=20, out_features=1, bias=True) ## ) ## SimpleRNN( ## (rnn): RNN(1, 20, batch_first=True) ## (fc): Linear(in_features=20, out_features=1, bias=True) ## ) ## SimpleRNN( ## (rnn): RNN(1, 20, batch_first=True) ## (fc): Linear(in_features=20, out_features=1, bias=True) ## ) ## SimpleRNN( ## (rnn): RNN(1, 20, batch_first=True) ## (fc): Linear(in_features=20, out_features=1, bias=True) ## ) ## SimpleRNN( ## (rnn): RNN(1, 20, batch_first=True) ## (fc): Linear(in_features=20, out_features=1, bias=True) ## ) ## SimpleRNN( ## (rnn): RNN(1, 20, batch_first=True) ## (fc): Linear(in_features=20, out_features=1, bias=True) ## ) ## SimpleRNN( ## (rnn): RNN(1, 20, batch_first=True) ## (fc): Linear(in_features=20, out_features=1, bias=True) ## ) ## SimpleRNN( ## (rnn): RNN(1, 20, batch_first=True) ## (fc): Linear(in_features=20, out_features=1, bias=True) ## ) ## SimpleRNN( ## (rnn): RNN(1, 20, batch_first=True) ## (fc): Linear(in_features=20, out_features=1, bias=True) ## ) ## SimpleRNN( ## (rnn): RNN(1, 20, batch_first=True) ## (fc): Linear(in_features=20, out_features=1, bias=True) ## ) ## SimpleRNN( ## (rnn): RNN(1, 20, batch_first=True) ## (fc): Linear(in_features=20, out_features=1, bias=True) ## ) ## SimpleRNN( ## (rnn): RNN(1, 20, batch_first=True) ## (fc): Linear(in_features=20, out_features=1, bias=True) ## ) ## SimpleRNN( ## (rnn): RNN(1, 20, batch_first=True) ## (fc): Linear(in_features=20, out_features=1, bias=True) ## ) ## SimpleRNN( ## (rnn): RNN(1, 20, batch_first=True) ## (fc): Linear(in_features=20, out_features=1, bias=True) ## ) ## SimpleRNN( ## (rnn): RNN(1, 20, batch_first=True) ## (fc): Linear(in_features=20, out_features=1, bias=True) ## ) ## SimpleRNN( ## (rnn): RNN(1, 20, batch_first=True) ## (fc): Linear(in_features=20, out_features=1, bias=True) ## ) ## SimpleRNN( ## (rnn): RNN(1, 20, batch_first=True) ## (fc): Linear(in_features=20, out_features=1, bias=True) ## ) ## SimpleRNN( ## (rnn): RNN(1, 20, batch_first=True) ## (fc): Linear(in_features=20, out_features=1, bias=True) ## ) ## SimpleRNN( ## (rnn): RNN(1, 20, batch_first=True) ## (fc): Linear(in_features=20, out_features=1, bias=True) ## ) ## SimpleRNN( ## (rnn): RNN(1, 20, batch_first=True) ## (fc): Linear(in_features=20, out_features=1, bias=True) ## ) ## SimpleRNN( ## (rnn): RNN(1, 20, batch_first=True) ## (fc): Linear(in_features=20, out_features=1, bias=True) ## ) ## SimpleRNN( ## (rnn): RNN(1, 20, batch_first=True) ## (fc): Linear(in_features=20, out_features=1, bias=True) ## ) ## SimpleRNN( ## (rnn): RNN(1, 20, batch_first=True) ## (fc): Linear(in_features=20, out_features=1, bias=True) ## ) ## SimpleRNN( ## (rnn): RNN(1, 20, batch_first=True) ## (fc): Linear(in_features=20, out_features=1, bias=True) ## ) ## SimpleRNN( ## (rnn): RNN(1, 20, batch_first=True) ## (fc): Linear(in_features=20, out_features=1, bias=True) ## ) ## SimpleRNN( ## (rnn): RNN(1, 20, batch_first=True) ## (fc): Linear(in_features=20, out_features=1, bias=True) ## ) ## SimpleRNN( ## (rnn): RNN(1, 20, batch_first=True) ## (fc): Linear(in_features=20, out_features=1, bias=True) ## ) ## SimpleRNN( ## (rnn): RNN(1, 20, batch_first=True) ## (fc): Linear(in_features=20, out_features=1, bias=True) ## ) ## SimpleRNN( ## (rnn): RNN(1, 20, batch_first=True) ## (fc): Linear(in_features=20, out_features=1, bias=True) ## ) ## SimpleRNN( ## (rnn): RNN(1, 20, batch_first=True) ## (fc): Linear(in_features=20, out_features=1, bias=True) ## ) ## SimpleRNN( ## (rnn): RNN(1, 20, batch_first=True) ## (fc): Linear(in_features=20, out_features=1, bias=True) ## ) ## SimpleRNN( ## (rnn): RNN(1, 20, batch_first=True) ## (fc): Linear(in_features=20, out_features=1, bias=True) ## ) ## SimpleRNN( ## (rnn): RNN(1, 20, batch_first=True) ## (fc): Linear(in_features=20, out_features=1, bias=True) ## ) ## SimpleRNN( ## (rnn): RNN(1, 20, batch_first=True) ## (fc): Linear(in_features=20, out_features=1, bias=True) ## ) ## SimpleRNN( ## (rnn): RNN(1, 20, batch_first=True) ## (fc): Linear(in_features=20, out_features=1, bias=True) ## ) ## SimpleRNN( ## (rnn): RNN(1, 20, batch_first=True) ## (fc): Linear(in_features=20, out_features=1, bias=True) ## ) ## SimpleRNN( ## (rnn): RNN(1, 20, batch_first=True) ## (fc): Linear(in_features=20, out_features=1, bias=True) ## ) ## SimpleRNN( ## (rnn): RNN(1, 20, batch_first=True) ## (fc): Linear(in_features=20, out_features=1, bias=True) ## ) ## SimpleRNN( ## (rnn): RNN(1, 20, batch_first=True) ## (fc): Linear(in_features=20, out_features=1, bias=True) ## ) ## SimpleRNN( ## (rnn): RNN(1, 20, batch_first=True) ## (fc): Linear(in_features=20, out_features=1, bias=True) ## ) ## SimpleRNN( ## (rnn): RNN(1, 20, batch_first=True) ## (fc): Linear(in_features=20, out_features=1, bias=True) ## ) ## SimpleRNN( ## (rnn): RNN(1, 20, batch_first=True) ## (fc): Linear(in_features=20, out_features=1, bias=True) ## ) ## SimpleRNN( ## (rnn): RNN(1, 20, batch_first=True) ## (fc): Linear(in_features=20, out_features=1, bias=True) ## ) ## SimpleRNN( ## (rnn): RNN(1, 20, batch_first=True) ## (fc): Linear(in_features=20, out_features=1, bias=True) ## ) ## SimpleRNN( ## (rnn): RNN(1, 20, batch_first=True) ## (fc): Linear(in_features=20, out_features=1, bias=True) ## ) ## SimpleRNN( ## (rnn): RNN(1, 20, batch_first=True) ## (fc): Linear(in_features=20, out_features=1, bias=True) ## ) ## SimpleRNN( ## (rnn): RNN(1, 20, batch_first=True) ## (fc): Linear(in_features=20, out_features=1, bias=True) ## ) ## SimpleRNN( ## (rnn): RNN(1, 20, batch_first=True) ## (fc): Linear(in_features=20, out_features=1, bias=True) ## ) ## SimpleRNN( ## (rnn): RNN(1, 20, batch_first=True) ## (fc): Linear(in_features=20, out_features=1, bias=True) ## ) ## SimpleRNN( ## (rnn): RNN(1, 20, batch_first=True) ## (fc): Linear(in_features=20, out_features=1, bias=True) ## ) ## SimpleRNN( ## (rnn): RNN(1, 20, batch_first=True) ## (fc): Linear(in_features=20, out_features=1, bias=True) ## ) ## SimpleRNN( ## (rnn): RNN(1, 20, batch_first=True) ## (fc): Linear(in_features=20, out_features=1, bias=True) ## ) ## SimpleRNN( ## (rnn): RNN(1, 20, batch_first=True) ## (fc): Linear(in_features=20, out_features=1, bias=True) ## ) ## SimpleRNN( ## (rnn): RNN(1, 20, batch_first=True) ## (fc): Linear(in_features=20, out_features=1, bias=True) ## ) ## SimpleRNN( ## (rnn): RNN(1, 20, batch_first=True) ## (fc): Linear(in_features=20, out_features=1, bias=True) ## ) ## SimpleRNN( ## (rnn): RNN(1, 20, batch_first=True) ## (fc): Linear(in_features=20, out_features=1, bias=True) ## ) ## SimpleRNN( ## (rnn): RNN(1, 20, batch_first=True) ## (fc): Linear(in_features=20, out_features=1, bias=True) ## ) ## SimpleRNN( ## (rnn): RNN(1, 20, batch_first=True) ## (fc): Linear(in_features=20, out_features=1, bias=True) ## ) ## SimpleRNN( ## (rnn): RNN(1, 20, batch_first=True) ## (fc): Linear(in_features=20, out_features=1, bias=True) ## ) ## SimpleRNN( ## (rnn): RNN(1, 20, batch_first=True) ## (fc): Linear(in_features=20, out_features=1, bias=True) ## ) ## SimpleRNN( ## (rnn): RNN(1, 20, batch_first=True) ## (fc): Linear(in_features=20, out_features=1, bias=True) ## ) ## SimpleRNN( ## (rnn): RNN(1, 20, batch_first=True) ## (fc): Linear(in_features=20, out_features=1, bias=True) ## ) ## SimpleRNN( ## (rnn): RNN(1, 20, batch_first=True) ## (fc): Linear(in_features=20, out_features=1, bias=True) ## ) ## SimpleRNN( ## (rnn): RNN(1, 20, batch_first=True) ## (fc): Linear(in_features=20, out_features=1, bias=True) ## ) ## SimpleRNN( ## (rnn): RNN(1, 20, batch_first=True) ## (fc): Linear(in_features=20, out_features=1, bias=True) ## ) ## SimpleRNN( ## (rnn): RNN(1, 20, batch_first=True) ## (fc): Linear(in_features=20, out_features=1, bias=True) ## ) ## SimpleRNN( ## (rnn): RNN(1, 20, batch_first=True) ## (fc): Linear(in_features=20, out_features=1, bias=True) ## ) ## SimpleRNN( ## (rnn): RNN(1, 20, batch_first=True) ## (fc): Linear(in_features=20, out_features=1, bias=True) ## ) ## SimpleRNN( ## (rnn): RNN(1, 20, batch_first=True) ## (fc): Linear(in_features=20, out_features=1, bias=True) ## ) ## SimpleRNN( ## (rnn): RNN(1, 20, batch_first=True) ## (fc): Linear(in_features=20, out_features=1, bias=True) ## ) ## SimpleRNN( ## (rnn): RNN(1, 20, batch_first=True) ## (fc): Linear(in_features=20, out_features=1, bias=True) ## ) ## SimpleRNN( ## (rnn): RNN(1, 20, batch_first=True) ## (fc): Linear(in_features=20, out_features=1, bias=True) ## ) ## SimpleRNN( ## (rnn): RNN(1, 20, batch_first=True) ## (fc): Linear(in_features=20, out_features=1, bias=True) ## ) ## SimpleRNN( ## (rnn): RNN(1, 20, batch_first=True) ## (fc): Linear(in_features=20, out_features=1, bias=True) ## ) ## SimpleRNN( ## (rnn): RNN(1, 20, batch_first=True) ## (fc): Linear(in_features=20, out_features=1, bias=True) ## ) ## SimpleRNN( ## (rnn): RNN(1, 20, batch_first=True) ## (fc): Linear(in_features=20, out_features=1, bias=True) ## ) ## SimpleRNN( ## (rnn): RNN(1, 20, batch_first=True) ## (fc): Linear(in_features=20, out_features=1, bias=True) ## ) ## SimpleRNN( ## (rnn): RNN(1, 20, batch_first=True) ## (fc): Linear(in_features=20, out_features=1, bias=True) ## ) ## SimpleRNN( ## (rnn): RNN(1, 20, batch_first=True) ## (fc): Linear(in_features=20, out_features=1, bias=True) ## ) ## SimpleRNN( ## (rnn): RNN(1, 20, batch_first=True) ## (fc): Linear(in_features=20, out_features=1, bias=True) ## ) ## SimpleRNN( ## (rnn): RNN(1, 20, batch_first=True) ## (fc): Linear(in_features=20, out_features=1, bias=True) ## ) ## SimpleRNN( ## (rnn): RNN(1, 20, batch_first=True) ## (fc): Linear(in_features=20, out_features=1, bias=True) ## ) ## SimpleRNN( ## (rnn): RNN(1, 20, batch_first=True) ## (fc): Linear(in_features=20, out_features=1, bias=True) ## ) ## SimpleRNN( ## (rnn): RNN(1, 20, batch_first=True) ## (fc): Linear(in_features=20, out_features=1, bias=True) ## ) ## SimpleRNN( ## (rnn): RNN(1, 20, batch_first=True) ## (fc): Linear(in_features=20, out_features=1, bias=True) ## ) ## SimpleRNN( ## (rnn): RNN(1, 20, batch_first=True) ## (fc): Linear(in_features=20, out_features=1, bias=True) ## ) ## SimpleRNN( ## (rnn): RNN(1, 20, batch_first=True) ## (fc): Linear(in_features=20, out_features=1, bias=True) ## ) ## SimpleRNN( ## (rnn): RNN(1, 20, batch_first=True) ## (fc): Linear(in_features=20, out_features=1, bias=True) ## ) ## SimpleRNN( ## (rnn): RNN(1, 20, batch_first=True) ## (fc): Linear(in_features=20, out_features=1, bias=True) ## ) ## SimpleRNN( ## (rnn): RNN(1, 20, batch_first=True) ## (fc): Linear(in_features=20, out_features=1, bias=True) ## ) ## Loss: 1310.9083251953125 ## SimpleRNN( ## (rnn): RNN(1, 20, batch_first=True) ## (fc): Linear(in_features=20, out_features=1, bias=True) ## ) ## SimpleRNN( ## (rnn): RNN(1, 20, batch_first=True) ## (fc): Linear(in_features=20, out_features=1, bias=True) ## ) ## SimpleRNN( ## (rnn): RNN(1, 20, batch_first=True) ## (fc): Linear(in_features=20, out_features=1, bias=True) ## ) ## SimpleRNN( ## (rnn): RNN(1, 20, batch_first=True) ## (fc): Linear(in_features=20, out_features=1, bias=True) ## ) ## SimpleRNN( ## (rnn): RNN(1, 20, batch_first=True) ## (fc): Linear(in_features=20, out_features=1, bias=True) ## ) ## SimpleRNN( ## (rnn): RNN(1, 20, batch_first=True) ## (fc): Linear(in_features=20, out_features=1, bias=True) ## ) ## SimpleRNN( ## (rnn): RNN(1, 20, batch_first=True) ## (fc): Linear(in_features=20, out_features=1, bias=True) ## ) ## SimpleRNN( ## (rnn): RNN(1, 20, batch_first=True) ## (fc): Linear(in_features=20, out_features=1, bias=True) ## ) ## SimpleRNN( ## (rnn): RNN(1, 20, batch_first=True) ## (fc): Linear(in_features=20, out_features=1, bias=True) ## ) ## SimpleRNN( ## (rnn): RNN(1, 20, batch_first=True) ## (fc): Linear(in_features=20, out_features=1, bias=True) ## ) ## SimpleRNN( ## (rnn): RNN(1, 20, batch_first=True) ## (fc): Linear(in_features=20, out_features=1, bias=True) ## ) ## SimpleRNN( ## (rnn): RNN(1, 20, batch_first=True) ## (fc): Linear(in_features=20, out_features=1, bias=True) ## ) ## SimpleRNN( ## (rnn): RNN(1, 20, batch_first=True) ## (fc): Linear(in_features=20, out_features=1, bias=True) ## ) ## SimpleRNN( ## (rnn): RNN(1, 20, batch_first=True) ## (fc): Linear(in_features=20, out_features=1, bias=True) ## ) ## SimpleRNN( ## (rnn): RNN(1, 20, batch_first=True) ## (fc): Linear(in_features=20, out_features=1, bias=True) ## ) ## SimpleRNN( ## (rnn): RNN(1, 20, batch_first=True) ## (fc): Linear(in_features=20, out_features=1, bias=True) ## ) ## SimpleRNN( ## (rnn): RNN(1, 20, batch_first=True) ## (fc): Linear(in_features=20, out_features=1, bias=True) ## ) ## SimpleRNN( ## (rnn): RNN(1, 20, batch_first=True) ## (fc): Linear(in_features=20, out_features=1, bias=True) ## ) ## SimpleRNN( ## (rnn): RNN(1, 20, batch_first=True) ## (fc): Linear(in_features=20, out_features=1, bias=True) ## ) ## SimpleRNN( ## (rnn): RNN(1, 20, batch_first=True) ## (fc): Linear(in_features=20, out_features=1, bias=True) ## ) ## SimpleRNN( ## (rnn): RNN(1, 20, batch_first=True) ## (fc): Linear(in_features=20, out_features=1, bias=True) ## ) ## SimpleRNN( ## (rnn): RNN(1, 20, batch_first=True) ## (fc): Linear(in_features=20, out_features=1, bias=True) ## ) ## SimpleRNN( ## (rnn): RNN(1, 20, batch_first=True) ## (fc): Linear(in_features=20, out_features=1, bias=True) ## ) ## SimpleRNN( ## (rnn): RNN(1, 20, batch_first=True) ## (fc): Linear(in_features=20, out_features=1, bias=True) ## ) ## SimpleRNN( ## (rnn): RNN(1, 20, batch_first=True) ## (fc): Linear(in_features=20, out_features=1, bias=True) ## ) ## SimpleRNN( ## (rnn): RNN(1, 20, batch_first=True) ## (fc): Linear(in_features=20, out_features=1, bias=True) ## ) ## SimpleRNN( ## (rnn): RNN(1, 20, batch_first=True) ## (fc): Linear(in_features=20, out_features=1, bias=True) ## ) ## SimpleRNN( ## (rnn): RNN(1, 20, batch_first=True) ## (fc): Linear(in_features=20, out_features=1, bias=True) ## ) ## SimpleRNN( ## (rnn): RNN(1, 20, batch_first=True) ## (fc): Linear(in_features=20, out_features=1, bias=True) ## ) ## SimpleRNN( ## (rnn): RNN(1, 20, batch_first=True) ## (fc): Linear(in_features=20, out_features=1, bias=True) ## ) ## SimpleRNN( ## (rnn): RNN(1, 20, batch_first=True) ## (fc): Linear(in_features=20, out_features=1, bias=True) ## ) ## SimpleRNN( ## (rnn): RNN(1, 20, batch_first=True) ## (fc): Linear(in_features=20, out_features=1, bias=True) ## ) ## SimpleRNN( ## (rnn): RNN(1, 20, batch_first=True) ## (fc): Linear(in_features=20, out_features=1, bias=True) ## ) ## SimpleRNN( ## (rnn): RNN(1, 20, batch_first=True) ## (fc): Linear(in_features=20, out_features=1, bias=True) ## ) ## SimpleRNN( ## (rnn): RNN(1, 20, batch_first=True) ## (fc): Linear(in_features=20, out_features=1, bias=True) ## ) ## SimpleRNN( ## (rnn): RNN(1, 20, batch_first=True) ## (fc): Linear(in_features=20, out_features=1, bias=True) ## ) ## SimpleRNN( ## (rnn): RNN(1, 20, batch_first=True) ## (fc): Linear(in_features=20, out_features=1, bias=True) ## ) ## SimpleRNN( ## (rnn): RNN(1, 20, batch_first=True) ## (fc): Linear(in_features=20, out_features=1, bias=True) ## ) ## SimpleRNN( ## (rnn): RNN(1, 20, batch_first=True) ## (fc): Linear(in_features=20, out_features=1, bias=True) ## ) ## SimpleRNN( ## (rnn): RNN(1, 20, batch_first=True) ## (fc): Linear(in_features=20, out_features=1, bias=True) ## ) ## SimpleRNN( ## (rnn): RNN(1, 20, batch_first=True) ## (fc): Linear(in_features=20, out_features=1, bias=True) ## ) ## SimpleRNN( ## (rnn): RNN(1, 20, batch_first=True) ## (fc): Linear(in_features=20, out_features=1, bias=True) ## ) ## SimpleRNN( ## (rnn): RNN(1, 20, batch_first=True) ## (fc): Linear(in_features=20, out_features=1, bias=True) ## ) ## SimpleRNN( ## (rnn): RNN(1, 20, batch_first=True) ## (fc): Linear(in_features=20, out_features=1, bias=True) ## ) ## SimpleRNN( ## (rnn): RNN(1, 20, batch_first=True) ## (fc): Linear(in_features=20, out_features=1, bias=True) ## ) ## SimpleRNN( ## (rnn): RNN(1, 20, batch_first=True) ## (fc): Linear(in_features=20, out_features=1, bias=True) ## ) ## SimpleRNN( ## (rnn): RNN(1, 20, batch_first=True) ## (fc): Linear(in_features=20, out_features=1, bias=True) ## ) ## SimpleRNN( ## (rnn): RNN(1, 20, batch_first=True) ## (fc): Linear(in_features=20, out_features=1, bias=True) ## ) ## SimpleRNN( ## (rnn): RNN(1, 20, batch_first=True) ## (fc): Linear(in_features=20, out_features=1, bias=True) ## ) ## SimpleRNN( ## (rnn): RNN(1, 20, batch_first=True) ## (fc): Linear(in_features=20, out_features=1, bias=True) ## ) ## SimpleRNN( ## (rnn): RNN(1, 20, batch_first=True) ## (fc): Linear(in_features=20, out_features=1, bias=True) ## ) ## SimpleRNN( ## (rnn): RNN(1, 20, batch_first=True) ## (fc): Linear(in_features=20, out_features=1, bias=True) ## ) ## SimpleRNN( ## (rnn): RNN(1, 20, batch_first=True) ## (fc): Linear(in_features=20, out_features=1, bias=True) ## ) ## SimpleRNN( ## (rnn): RNN(1, 20, batch_first=True) ## (fc): Linear(in_features=20, out_features=1, bias=True) ## ) ## SimpleRNN( ## (rnn): RNN(1, 20, batch_first=True) ## (fc): Linear(in_features=20, out_features=1, bias=True) ## ) ## SimpleRNN( ## (rnn): RNN(1, 20, batch_first=True) ## (fc): Linear(in_features=20, out_features=1, bias=True) ## ) ## SimpleRNN( ## (rnn): RNN(1, 20, batch_first=True) ## (fc): Linear(in_features=20, out_features=1, bias=True) ## ) ## SimpleRNN( ## (rnn): RNN(1, 20, batch_first=True) ## (fc): Linear(in_features=20, out_features=1, bias=True) ## ) ## SimpleRNN( ## (rnn): RNN(1, 20, batch_first=True) ## (fc): Linear(in_features=20, out_features=1, bias=True) ## ) ## SimpleRNN( ## (rnn): RNN(1, 20, batch_first=True) ## (fc): Linear(in_features=20, out_features=1, bias=True) ## ) ## SimpleRNN( ## (rnn): RNN(1, 20, batch_first=True) ## (fc): Linear(in_features=20, out_features=1, bias=True) ## ) ## SimpleRNN( ## (rnn): RNN(1, 20, batch_first=True) ## (fc): Linear(in_features=20, out_features=1, bias=True) ## ) ## SimpleRNN( ## (rnn): RNN(1, 20, batch_first=True) ## (fc): Linear(in_features=20, out_features=1, bias=True) ## ) ## SimpleRNN( ## (rnn): RNN(1, 20, batch_first=True) ## (fc): Linear(in_features=20, out_features=1, bias=True) ## ) ## SimpleRNN( ## (rnn): RNN(1, 20, batch_first=True) ## (fc): Linear(in_features=20, out_features=1, bias=True) ## ) ## SimpleRNN( ## (rnn): RNN(1, 20, batch_first=True) ## (fc): Linear(in_features=20, out_features=1, bias=True) ## ) ## SimpleRNN( ## (rnn): RNN(1, 20, batch_first=True) ## (fc): Linear(in_features=20, out_features=1, bias=True) ## ) ## SimpleRNN( ## (rnn): RNN(1, 20, batch_first=True) ## (fc): Linear(in_features=20, out_features=1, bias=True) ## ) ## SimpleRNN( ## (rnn): RNN(1, 20, batch_first=True) ## (fc): Linear(in_features=20, out_features=1, bias=True) ## ) ## SimpleRNN( ## (rnn): RNN(1, 20, batch_first=True) ## (fc): Linear(in_features=20, out_features=1, bias=True) ## ) ## SimpleRNN( ## (rnn): RNN(1, 20, batch_first=True) ## (fc): Linear(in_features=20, out_features=1, bias=True) ## ) ## SimpleRNN( ## (rnn): RNN(1, 20, batch_first=True) ## (fc): Linear(in_features=20, out_features=1, bias=True) ## ) ## SimpleRNN( ## (rnn): RNN(1, 20, batch_first=True) ## (fc): Linear(in_features=20, out_features=1, bias=True) ## ) ## SimpleRNN( ## (rnn): RNN(1, 20, batch_first=True) ## (fc): Linear(in_features=20, out_features=1, bias=True) ## ) ## SimpleRNN( ## (rnn): RNN(1, 20, batch_first=True) ## (fc): Linear(in_features=20, out_features=1, bias=True) ## ) ## SimpleRNN( ## (rnn): RNN(1, 20, batch_first=True) ## (fc): Linear(in_features=20, out_features=1, bias=True) ## ) ## SimpleRNN( ## (rnn): RNN(1, 20, batch_first=True) ## (fc): Linear(in_features=20, out_features=1, bias=True) ## ) ## SimpleRNN( ## (rnn): RNN(1, 20, batch_first=True) ## (fc): Linear(in_features=20, out_features=1, bias=True) ## ) ## SimpleRNN( ## (rnn): RNN(1, 20, batch_first=True) ## (fc): Linear(in_features=20, out_features=1, bias=True) ## ) ## SimpleRNN( ## (rnn): RNN(1, 20, batch_first=True) ## (fc): Linear(in_features=20, out_features=1, bias=True) ## ) ## SimpleRNN( ## (rnn): RNN(1, 20, batch_first=True) ## (fc): Linear(in_features=20, out_features=1, bias=True) ## ) ## SimpleRNN( ## (rnn): RNN(1, 20, batch_first=True) ## (fc): Linear(in_features=20, out_features=1, bias=True) ## ) ## SimpleRNN( ## (rnn): RNN(1, 20, batch_first=True) ## (fc): Linear(in_features=20, out_features=1, bias=True) ## ) ## SimpleRNN( ## (rnn): RNN(1, 20, batch_first=True) ## (fc): Linear(in_features=20, out_features=1, bias=True) ## ) ## SimpleRNN( ## (rnn): RNN(1, 20, batch_first=True) ## (fc): Linear(in_features=20, out_features=1, bias=True) ## ) ## SimpleRNN( ## (rnn): RNN(1, 20, batch_first=True) ## (fc): Linear(in_features=20, out_features=1, bias=True) ## ) ## SimpleRNN( ## (rnn): RNN(1, 20, batch_first=True) ## (fc): Linear(in_features=20, out_features=1, bias=True) ## ) ## SimpleRNN( ## (rnn): RNN(1, 20, batch_first=True) ## (fc): Linear(in_features=20, out_features=1, bias=True) ## ) ## SimpleRNN( ## (rnn): RNN(1, 20, batch_first=True) ## (fc): Linear(in_features=20, out_features=1, bias=True) ## ) ## SimpleRNN( ## (rnn): RNN(1, 20, batch_first=True) ## (fc): Linear(in_features=20, out_features=1, bias=True) ## ) ## SimpleRNN( ## (rnn): RNN(1, 20, batch_first=True) ## (fc): Linear(in_features=20, out_features=1, bias=True) ## ) ## SimpleRNN( ## (rnn): RNN(1, 20, batch_first=True) ## (fc): Linear(in_features=20, out_features=1, bias=True) ## ) ## SimpleRNN( ## (rnn): RNN(1, 20, batch_first=True) ## (fc): Linear(in_features=20, out_features=1, bias=True) ## ) ## SimpleRNN( ## (rnn): RNN(1, 20, batch_first=True) ## (fc): Linear(in_features=20, out_features=1, bias=True) ## ) ## SimpleRNN( ## (rnn): RNN(1, 20, batch_first=True) ## (fc): Linear(in_features=20, out_features=1, bias=True) ## ) ## SimpleRNN( ## (rnn): RNN(1, 20, batch_first=True) ## (fc): Linear(in_features=20, out_features=1, bias=True) ## ) ## SimpleRNN( ## (rnn): RNN(1, 20, batch_first=True) ## (fc): Linear(in_features=20, out_features=1, bias=True) ## ) ## SimpleRNN( ## (rnn): RNN(1, 20, batch_first=True) ## (fc): Linear(in_features=20, out_features=1, bias=True) ## ) ## SimpleRNN( ## (rnn): RNN(1, 20, batch_first=True) ## (fc): Linear(in_features=20, out_features=1, bias=True) ## ) ## SimpleRNN( ## (rnn): RNN(1, 20, batch_first=True) ## (fc): Linear(in_features=20, out_features=1, bias=True) ## ) ## Loss: 3087.639892578125 ## SimpleRNN( ## (rnn): RNN(1, 20, batch_first=True) ## (fc): Linear(in_features=20, out_features=1, bias=True) ## ) ## SimpleRNN( ## (rnn): RNN(1, 20, batch_first=True) ## (fc): Linear(in_features=20, out_features=1, bias=True) ## ) ## SimpleRNN( ## (rnn): RNN(1, 20, batch_first=True) ## (fc): Linear(in_features=20, out_features=1, bias=True) ## ) ## SimpleRNN( ## (rnn): RNN(1, 20, batch_first=True) ## (fc): Linear(in_features=20, out_features=1, bias=True) ## ) ## SimpleRNN( ## (rnn): RNN(1, 20, batch_first=True) ## (fc): Linear(in_features=20, out_features=1, bias=True) ## ) ## SimpleRNN( ## (rnn): RNN(1, 20, batch_first=True) ## (fc): Linear(in_features=20, out_features=1, bias=True) ## ) ## SimpleRNN( ## (rnn): RNN(1, 20, batch_first=True) ## (fc): Linear(in_features=20, out_features=1, bias=True) ## ) ## SimpleRNN( ## (rnn): RNN(1, 20, batch_first=True) ## (fc): Linear(in_features=20, out_features=1, bias=True) ## ) ## SimpleRNN( ## (rnn): RNN(1, 20, batch_first=True) ## (fc): Linear(in_features=20, out_features=1, bias=True) ## ) ## SimpleRNN( ## (rnn): RNN(1, 20, batch_first=True) ## (fc): Linear(in_features=20, out_features=1, bias=True) ## ) ## SimpleRNN( ## (rnn): RNN(1, 20, batch_first=True) ## (fc): Linear(in_features=20, out_features=1, bias=True) ## ) ## SimpleRNN( ## (rnn): RNN(1, 20, batch_first=True) ## (fc): Linear(in_features=20, out_features=1, bias=True) ## ) ## SimpleRNN( ## (rnn): RNN(1, 20, batch_first=True) ## (fc): Linear(in_features=20, out_features=1, bias=True) ## ) ## SimpleRNN( ## (rnn): RNN(1, 20, batch_first=True) ## (fc): Linear(in_features=20, out_features=1, bias=True) ## ) ## SimpleRNN( ## (rnn): RNN(1, 20, batch_first=True) ## (fc): Linear(in_features=20, out_features=1, bias=True) ## ) ## SimpleRNN( ## (rnn): RNN(1, 20, batch_first=True) ## (fc): Linear(in_features=20, out_features=1, bias=True) ## ) ## SimpleRNN( ## (rnn): RNN(1, 20, batch_first=True) ## (fc): Linear(in_features=20, out_features=1, bias=True) ## ) ## SimpleRNN( ## (rnn): RNN(1, 20, batch_first=True) ## (fc): Linear(in_features=20, out_features=1, bias=True) ## ) ## SimpleRNN( ## (rnn): RNN(1, 20, batch_first=True) ## (fc): Linear(in_features=20, out_features=1, bias=True) ## ) ## SimpleRNN( ## (rnn): RNN(1, 20, batch_first=True) ## (fc): Linear(in_features=20, out_features=1, bias=True) ## ) ## SimpleRNN( ## (rnn): RNN(1, 20, batch_first=True) ## (fc): Linear(in_features=20, out_features=1, bias=True) ## ) ## SimpleRNN( ## (rnn): RNN(1, 20, batch_first=True) ## (fc): Linear(in_features=20, out_features=1, bias=True) ## ) ## SimpleRNN( ## (rnn): RNN(1, 20, batch_first=True) ## (fc): Linear(in_features=20, out_features=1, bias=True) ## ) ## SimpleRNN( ## (rnn): RNN(1, 20, batch_first=True) ## (fc): Linear(in_features=20, out_features=1, bias=True) ## ) ## SimpleRNN( ## (rnn): RNN(1, 20, batch_first=True) ## (fc): Linear(in_features=20, out_features=1, bias=True) ## ) ## SimpleRNN( ## (rnn): RNN(1, 20, batch_first=True) ## (fc): Linear(in_features=20, out_features=1, bias=True) ## ) ## SimpleRNN( ## (rnn): RNN(1, 20, batch_first=True) ## (fc): Linear(in_features=20, out_features=1, bias=True) ## ) ## SimpleRNN( ## (rnn): RNN(1, 20, batch_first=True) ## (fc): Linear(in_features=20, out_features=1, bias=True) ## ) ## SimpleRNN( ## (rnn): RNN(1, 20, batch_first=True) ## (fc): Linear(in_features=20, out_features=1, bias=True) ## ) ## SimpleRNN( ## (rnn): RNN(1, 20, batch_first=True) ## (fc): Linear(in_features=20, out_features=1, bias=True) ## ) ## SimpleRNN( ## (rnn): RNN(1, 20, batch_first=True) ## (fc): Linear(in_features=20, out_features=1, bias=True) ## ) ## SimpleRNN( ## (rnn): RNN(1, 20, batch_first=True) ## (fc): Linear(in_features=20, out_features=1, bias=True) ## ) ## SimpleRNN( ## (rnn): RNN(1, 20, batch_first=True) ## (fc): Linear(in_features=20, out_features=1, bias=True) ## ) ## SimpleRNN( ## (rnn): RNN(1, 20, batch_first=True) ## (fc): Linear(in_features=20, out_features=1, bias=True) ## ) ## SimpleRNN( ## (rnn): RNN(1, 20, batch_first=True) ## (fc): Linear(in_features=20, out_features=1, bias=True) ## ) ## SimpleRNN( ## (rnn): RNN(1, 20, batch_first=True) ## (fc): Linear(in_features=20, out_features=1, bias=True) ## ) ## SimpleRNN( ## (rnn): RNN(1, 20, batch_first=True) ## (fc): Linear(in_features=20, out_features=1, bias=True) ## ) ## SimpleRNN( ## (rnn): RNN(1, 20, batch_first=True) ## (fc): Linear(in_features=20, out_features=1, bias=True) ## ) ## SimpleRNN( ## (rnn): RNN(1, 20, batch_first=True) ## (fc): Linear(in_features=20, out_features=1, bias=True) ## ) ## SimpleRNN( ## (rnn): RNN(1, 20, batch_first=True) ## (fc): Linear(in_features=20, out_features=1, bias=True) ## ) ## SimpleRNN( ## (rnn): RNN(1, 20, batch_first=True) ## (fc): Linear(in_features=20, out_features=1, bias=True) ## ) ## SimpleRNN( ## (rnn): RNN(1, 20, batch_first=True) ## (fc): Linear(in_features=20, out_features=1, bias=True) ## ) ## SimpleRNN( ## (rnn): RNN(1, 20, batch_first=True) ## (fc): Linear(in_features=20, out_features=1, bias=True) ## ) ## SimpleRNN( ## (rnn): RNN(1, 20, batch_first=True) ## (fc): Linear(in_features=20, out_features=1, bias=True) ## ) ## SimpleRNN( ## (rnn): RNN(1, 20, batch_first=True) ## (fc): Linear(in_features=20, out_features=1, bias=True) ## ) ## SimpleRNN( ## (rnn): RNN(1, 20, batch_first=True) ## (fc): Linear(in_features=20, out_features=1, bias=True) ## ) ## SimpleRNN( ## (rnn): RNN(1, 20, batch_first=True) ## (fc): Linear(in_features=20, out_features=1, bias=True) ## ) ## SimpleRNN( ## (rnn): RNN(1, 20, batch_first=True) ## (fc): Linear(in_features=20, out_features=1, bias=True) ## ) ## SimpleRNN( ## (rnn): RNN(1, 20, batch_first=True) ## (fc): Linear(in_features=20, out_features=1, bias=True) ## ) ## SimpleRNN( ## (rnn): RNN(1, 20, batch_first=True) ## (fc): Linear(in_features=20, out_features=1, bias=True) ## ) ## SimpleRNN( ## (rnn): RNN(1, 20, batch_first=True) ## (fc): Linear(in_features=20, out_features=1, bias=True) ## ) ## SimpleRNN( ## (rnn): RNN(1, 20, batch_first=True) ## (fc): Linear(in_features=20, out_features=1, bias=True) ## ) ## SimpleRNN( ## (rnn): RNN(1, 20, batch_first=True) ## (fc): Linear(in_features=20, out_features=1, bias=True) ## ) ## SimpleRNN( ## (rnn): RNN(1, 20, batch_first=True) ## (fc): Linear(in_features=20, out_features=1, bias=True) ## ) ## SimpleRNN( ## (rnn): RNN(1, 20, batch_first=True) ## (fc): Linear(in_features=20, out_features=1, bias=True) ## ) ## SimpleRNN( ## (rnn): RNN(1, 20, batch_first=True) ## (fc): Linear(in_features=20, out_features=1, bias=True) ## ) ## SimpleRNN( ## (rnn): RNN(1, 20, batch_first=True) ## (fc): Linear(in_features=20, out_features=1, bias=True) ## ) ## SimpleRNN( ## (rnn): RNN(1, 20, batch_first=True) ## (fc): Linear(in_features=20, out_features=1, bias=True) ## ) ## SimpleRNN( ## (rnn): RNN(1, 20, batch_first=True) ## (fc): Linear(in_features=20, out_features=1, bias=True) ## ) ## SimpleRNN( ## (rnn): RNN(1, 20, batch_first=True) ## (fc): Linear(in_features=20, out_features=1, bias=True) ## ) ## SimpleRNN( ## (rnn): RNN(1, 20, batch_first=True) ## (fc): Linear(in_features=20, out_features=1, bias=True) ## ) ## SimpleRNN( ## (rnn): RNN(1, 20, batch_first=True) ## (fc): Linear(in_features=20, out_features=1, bias=True) ## ) ## SimpleRNN( ## (rnn): RNN(1, 20, batch_first=True) ## (fc): Linear(in_features=20, out_features=1, bias=True) ## ) ## SimpleRNN( ## (rnn): RNN(1, 20, batch_first=True) ## (fc): Linear(in_features=20, out_features=1, bias=True) ## ) ## SimpleRNN( ## (rnn): RNN(1, 20, batch_first=True) ## (fc): Linear(in_features=20, out_features=1, bias=True) ## ) ## SimpleRNN( ## (rnn): RNN(1, 20, batch_first=True) ## (fc): Linear(in_features=20, out_features=1, bias=True) ## ) ## SimpleRNN( ## (rnn): RNN(1, 20, batch_first=True) ## (fc): Linear(in_features=20, out_features=1, bias=True) ## ) ## SimpleRNN( ## (rnn): RNN(1, 20, batch_first=True) ## (fc): Linear(in_features=20, out_features=1, bias=True) ## ) ## SimpleRNN( ## (rnn): RNN(1, 20, batch_first=True) ## (fc): Linear(in_features=20, out_features=1, bias=True) ## ) ## SimpleRNN( ## (rnn): RNN(1, 20, batch_first=True) ## (fc): Linear(in_features=20, out_features=1, bias=True) ## ) ## SimpleRNN( ## (rnn): RNN(1, 20, batch_first=True) ## (fc): Linear(in_features=20, out_features=1, bias=True) ## ) ## SimpleRNN( ## (rnn): RNN(1, 20, batch_first=True) ## (fc): Linear(in_features=20, out_features=1, bias=True) ## ) ## SimpleRNN( ## (rnn): RNN(1, 20, batch_first=True) ## (fc): Linear(in_features=20, out_features=1, bias=True) ## ) ## SimpleRNN( ## (rnn): RNN(1, 20, batch_first=True) ## (fc): Linear(in_features=20, out_features=1, bias=True) ## ) ## SimpleRNN( ## (rnn): RNN(1, 20, batch_first=True) ## (fc): Linear(in_features=20, out_features=1, bias=True) ## ) ## SimpleRNN( ## (rnn): RNN(1, 20, batch_first=True) ## (fc): Linear(in_features=20, out_features=1, bias=True) ## ) ## SimpleRNN( ## (rnn): RNN(1, 20, batch_first=True) ## (fc): Linear(in_features=20, out_features=1, bias=True) ## ) ## SimpleRNN( ## (rnn): RNN(1, 20, batch_first=True) ## (fc): Linear(in_features=20, out_features=1, bias=True) ## ) ## SimpleRNN( ## (rnn): RNN(1, 20, batch_first=True) ## (fc): Linear(in_features=20, out_features=1, bias=True) ## ) ## SimpleRNN( ## (rnn): RNN(1, 20, batch_first=True) ## (fc): Linear(in_features=20, out_features=1, bias=True) ## ) ## SimpleRNN( ## (rnn): RNN(1, 20, batch_first=True) ## (fc): Linear(in_features=20, out_features=1, bias=True) ## ) ## SimpleRNN( ## (rnn): RNN(1, 20, batch_first=True) ## (fc): Linear(in_features=20, out_features=1, bias=True) ## ) ## SimpleRNN( ## (rnn): RNN(1, 20, batch_first=True) ## (fc): Linear(in_features=20, out_features=1, bias=True) ## ) ## SimpleRNN( ## (rnn): RNN(1, 20, batch_first=True) ## (fc): Linear(in_features=20, out_features=1, bias=True) ## ) ## SimpleRNN( ## (rnn): RNN(1, 20, batch_first=True) ## (fc): Linear(in_features=20, out_features=1, bias=True) ## ) ## SimpleRNN( ## (rnn): RNN(1, 20, batch_first=True) ## (fc): Linear(in_features=20, out_features=1, bias=True) ## ) ## SimpleRNN( ## (rnn): RNN(1, 20, batch_first=True) ## (fc): Linear(in_features=20, out_features=1, bias=True) ## ) ## SimpleRNN( ## (rnn): RNN(1, 20, batch_first=True) ## (fc): Linear(in_features=20, out_features=1, bias=True) ## ) ## SimpleRNN( ## (rnn): RNN(1, 20, batch_first=True) ## (fc): Linear(in_features=20, out_features=1, bias=True) ## ) ## SimpleRNN( ## (rnn): RNN(1, 20, batch_first=True) ## (fc): Linear(in_features=20, out_features=1, bias=True) ## ) ## SimpleRNN( ## (rnn): RNN(1, 20, batch_first=True) ## (fc): Linear(in_features=20, out_features=1, bias=True) ## ) ## SimpleRNN( ## (rnn): RNN(1, 20, batch_first=True) ## (fc): Linear(in_features=20, out_features=1, bias=True) ## ) ## SimpleRNN( ## (rnn): RNN(1, 20, batch_first=True) ## (fc): Linear(in_features=20, out_features=1, bias=True) ## ) ## SimpleRNN( ## (rnn): RNN(1, 20, batch_first=True) ## (fc): Linear(in_features=20, out_features=1, bias=True) ## ) ## SimpleRNN( ## (rnn): RNN(1, 20, batch_first=True) ## (fc): Linear(in_features=20, out_features=1, bias=True) ## ) ## SimpleRNN( ## (rnn): RNN(1, 20, batch_first=True) ## (fc): Linear(in_features=20, out_features=1, bias=True) ## ) ## SimpleRNN( ## (rnn): RNN(1, 20, batch_first=True) ## (fc): Linear(in_features=20, out_features=1, bias=True) ## ) ## SimpleRNN( ## (rnn): RNN(1, 20, batch_first=True) ## (fc): Linear(in_features=20, out_features=1, bias=True) ## ) ## SimpleRNN( ## (rnn): RNN(1, 20, batch_first=True) ## (fc): Linear(in_features=20, out_features=1, bias=True) ## ) ## SimpleRNN( ## (rnn): RNN(1, 20, batch_first=True) ## (fc): Linear(in_features=20, out_features=1, bias=True) ## ) ## Loss: 6207.2998046875 ## SimpleRNN( ## (rnn): RNN(1, 20, batch_first=True) ## (fc): Linear(in_features=20, out_features=1, bias=True) ## ) ## SimpleRNN( ## (rnn): RNN(1, 20, batch_first=True) ## (fc): Linear(in_features=20, out_features=1, bias=True) ## ) ## SimpleRNN( ## (rnn): RNN(1, 20, batch_first=True) ## (fc): Linear(in_features=20, out_features=1, bias=True) ## ) ## SimpleRNN( ## (rnn): RNN(1, 20, batch_first=True) ## (fc): Linear(in_features=20, out_features=1, bias=True) ## ) ## SimpleRNN( ## (rnn): RNN(1, 20, batch_first=True) ## (fc): Linear(in_features=20, out_features=1, bias=True) ## ) ## SimpleRNN( ## (rnn): RNN(1, 20, batch_first=True) ## (fc): Linear(in_features=20, out_features=1, bias=True) ## ) ## SimpleRNN( ## (rnn): RNN(1, 20, batch_first=True) ## (fc): Linear(in_features=20, out_features=1, bias=True) ## ) ## SimpleRNN( ## (rnn): RNN(1, 20, batch_first=True) ## (fc): Linear(in_features=20, out_features=1, bias=True) ## ) ## SimpleRNN( ## (rnn): RNN(1, 20, batch_first=True) ## (fc): Linear(in_features=20, out_features=1, bias=True) ## ) ## SimpleRNN( ## (rnn): RNN(1, 20, batch_first=True) ## (fc): Linear(in_features=20, out_features=1, bias=True) ## ) ## SimpleRNN( ## (rnn): RNN(1, 20, batch_first=True) ## (fc): Linear(in_features=20, out_features=1, bias=True) ## ) ## SimpleRNN( ## (rnn): RNN(1, 20, batch_first=True) ## (fc): Linear(in_features=20, out_features=1, bias=True) ## ) ## SimpleRNN( ## (rnn): RNN(1, 20, batch_first=True) ## (fc): Linear(in_features=20, out_features=1, bias=True) ## ) ## SimpleRNN( ## (rnn): RNN(1, 20, batch_first=True) ## (fc): Linear(in_features=20, out_features=1, bias=True) ## ) ## SimpleRNN( ## (rnn): RNN(1, 20, batch_first=True) ## (fc): Linear(in_features=20, out_features=1, bias=True) ## ) ## SimpleRNN( ## (rnn): RNN(1, 20, batch_first=True) ## (fc): Linear(in_features=20, out_features=1, bias=True) ## ) ## SimpleRNN( ## (rnn): RNN(1, 20, batch_first=True) ## (fc): Linear(in_features=20, out_features=1, bias=True) ## ) ## SimpleRNN( ## (rnn): RNN(1, 20, batch_first=True) ## (fc): Linear(in_features=20, out_features=1, bias=True) ## ) ## SimpleRNN( ## (rnn): RNN(1, 20, batch_first=True) ## (fc): Linear(in_features=20, out_features=1, bias=True) ## ) ## SimpleRNN( ## (rnn): RNN(1, 20, batch_first=True) ## (fc): Linear(in_features=20, out_features=1, bias=True) ## ) ## SimpleRNN( ## (rnn): RNN(1, 20, batch_first=True) ## (fc): Linear(in_features=20, out_features=1, bias=True) ## ) ## SimpleRNN( ## (rnn): RNN(1, 20, batch_first=True) ## (fc): Linear(in_features=20, out_features=1, bias=True) ## ) ## SimpleRNN( ## (rnn): RNN(1, 20, batch_first=True) ## (fc): Linear(in_features=20, out_features=1, bias=True) ## ) ## SimpleRNN( ## (rnn): RNN(1, 20, batch_first=True) ## (fc): Linear(in_features=20, out_features=1, bias=True) ## ) ## SimpleRNN( ## (rnn): RNN(1, 20, batch_first=True) ## (fc): Linear(in_features=20, out_features=1, bias=True) ## ) ## SimpleRNN( ## (rnn): RNN(1, 20, batch_first=True) ## (fc): Linear(in_features=20, out_features=1, bias=True) ## ) ## SimpleRNN( ## (rnn): RNN(1, 20, batch_first=True) ## (fc): Linear(in_features=20, out_features=1, bias=True) ## ) ## SimpleRNN( ## (rnn): RNN(1, 20, batch_first=True) ## (fc): Linear(in_features=20, out_features=1, bias=True) ## ) ## SimpleRNN( ## (rnn): RNN(1, 20, batch_first=True) ## (fc): Linear(in_features=20, out_features=1, bias=True) ## ) ## SimpleRNN( ## (rnn): RNN(1, 20, batch_first=True) ## (fc): Linear(in_features=20, out_features=1, bias=True) ## ) ## SimpleRNN( ## (rnn): RNN(1, 20, batch_first=True) ## (fc): Linear(in_features=20, out_features=1, bias=True) ## ) ## SimpleRNN( ## (rnn): RNN(1, 20, batch_first=True) ## (fc): Linear(in_features=20, out_features=1, bias=True) ## ) ## SimpleRNN( ## (rnn): RNN(1, 20, batch_first=True) ## (fc): Linear(in_features=20, out_features=1, bias=True) ## ) ## SimpleRNN( ## (rnn): RNN(1, 20, batch_first=True) ## (fc): Linear(in_features=20, out_features=1, bias=True) ## ) ## SimpleRNN( ## (rnn): RNN(1, 20, batch_first=True) ## (fc): Linear(in_features=20, out_features=1, bias=True) ## ) ## SimpleRNN( ## (rnn): RNN(1, 20, batch_first=True) ## (fc): Linear(in_features=20, out_features=1, bias=True) ## ) ## SimpleRNN( ## (rnn): RNN(1, 20, batch_first=True) ## (fc): Linear(in_features=20, out_features=1, bias=True) ## ) ## SimpleRNN( ## (rnn): RNN(1, 20, batch_first=True) ## (fc): Linear(in_features=20, out_features=1, bias=True) ## ) ## SimpleRNN( ## (rnn): RNN(1, 20, batch_first=True) ## (fc): Linear(in_features=20, out_features=1, bias=True) ## ) ## SimpleRNN( ## (rnn): RNN(1, 20, batch_first=True) ## (fc): Linear(in_features=20, out_features=1, bias=True) ## ) ## SimpleRNN( ## (rnn): RNN(1, 20, batch_first=True) ## (fc): Linear(in_features=20, out_features=1, bias=True) ## ) ## SimpleRNN( ## (rnn): RNN(1, 20, batch_first=True) ## (fc): Linear(in_features=20, out_features=1, bias=True) ## ) ## SimpleRNN( ## (rnn): RNN(1, 20, batch_first=True) ## (fc): Linear(in_features=20, out_features=1, bias=True) ## ) ## SimpleRNN( ## (rnn): RNN(1, 20, batch_first=True) ## (fc): Linear(in_features=20, out_features=1, bias=True) ## ) ## SimpleRNN( ## (rnn): RNN(1, 20, batch_first=True) ## (fc): Linear(in_features=20, out_features=1, bias=True) ## ) ## SimpleRNN( ## (rnn): RNN(1, 20, batch_first=True) ## (fc): Linear(in_features=20, out_features=1, bias=True) ## ) ## SimpleRNN( ## (rnn): RNN(1, 20, batch_first=True) ## (fc): Linear(in_features=20, out_features=1, bias=True) ## ) ## SimpleRNN( ## (rnn): RNN(1, 20, batch_first=True) ## (fc): Linear(in_features=20, out_features=1, bias=True) ## ) ## SimpleRNN( ## (rnn): RNN(1, 20, batch_first=True) ## (fc): Linear(in_features=20, out_features=1, bias=True) ## ) ## SimpleRNN( ## (rnn): RNN(1, 20, batch_first=True) ## (fc): Linear(in_features=20, out_features=1, bias=True) ## ) ## SimpleRNN( ## (rnn): RNN(1, 20, batch_first=True) ## (fc): Linear(in_features=20, out_features=1, bias=True) ## ) ## SimpleRNN( ## (rnn): RNN(1, 20, batch_first=True) ## (fc): Linear(in_features=20, out_features=1, bias=True) ## ) ## SimpleRNN( ## (rnn): RNN(1, 20, batch_first=True) ## (fc): Linear(in_features=20, out_features=1, bias=True) ## ) ## SimpleRNN( ## (rnn): RNN(1, 20, batch_first=True) ## (fc): Linear(in_features=20, out_features=1, bias=True) ## ) ## SimpleRNN( ## (rnn): RNN(1, 20, batch_first=True) ## (fc): Linear(in_features=20, out_features=1, bias=True) ## ) ## SimpleRNN( ## (rnn): RNN(1, 20, batch_first=True) ## (fc): Linear(in_features=20, out_features=1, bias=True) ## ) ## SimpleRNN( ## (rnn): RNN(1, 20, batch_first=True) ## (fc): Linear(in_features=20, out_features=1, bias=True) ## ) ## SimpleRNN( ## (rnn): RNN(1, 20, batch_first=True) ## (fc): Linear(in_features=20, out_features=1, bias=True) ## ) ## SimpleRNN( ## (rnn): RNN(1, 20, batch_first=True) ## (fc): Linear(in_features=20, out_features=1, bias=True) ## ) ## SimpleRNN( ## (rnn): RNN(1, 20, batch_first=True) ## (fc): Linear(in_features=20, out_features=1, bias=True) ## ) ## SimpleRNN( ## (rnn): RNN(1, 20, batch_first=True) ## (fc): Linear(in_features=20, out_features=1, bias=True) ## ) ## SimpleRNN( ## (rnn): RNN(1, 20, batch_first=True) ## (fc): Linear(in_features=20, out_features=1, bias=True) ## ) ## SimpleRNN( ## (rnn): RNN(1, 20, batch_first=True) ## (fc): Linear(in_features=20, out_features=1, bias=True) ## ) ## SimpleRNN( ## (rnn): RNN(1, 20, batch_first=True) ## (fc): Linear(in_features=20, out_features=1, bias=True) ## ) ## SimpleRNN( ## (rnn): RNN(1, 20, batch_first=True) ## (fc): Linear(in_features=20, out_features=1, bias=True) ## ) ## SimpleRNN( ## (rnn): RNN(1, 20, batch_first=True) ## (fc): Linear(in_features=20, out_features=1, bias=True) ## ) ## SimpleRNN( ## (rnn): RNN(1, 20, batch_first=True) ## (fc): Linear(in_features=20, out_features=1, bias=True) ## ) ## SimpleRNN( ## (rnn): RNN(1, 20, batch_first=True) ## (fc): Linear(in_features=20, out_features=1, bias=True) ## ) ## SimpleRNN( ## (rnn): RNN(1, 20, batch_first=True) ## (fc): Linear(in_features=20, out_features=1, bias=True) ## ) ## SimpleRNN( ## (rnn): RNN(1, 20, batch_first=True) ## (fc): Linear(in_features=20, out_features=1, bias=True) ## ) ## SimpleRNN( ## (rnn): RNN(1, 20, batch_first=True) ## (fc): Linear(in_features=20, out_features=1, bias=True) ## ) ## SimpleRNN( ## (rnn): RNN(1, 20, batch_first=True) ## (fc): Linear(in_features=20, out_features=1, bias=True) ## ) ## SimpleRNN( ## (rnn): RNN(1, 20, batch_first=True) ## (fc): Li…
pleRNN( ## (rnn): RNN(1, 20, batch_first=True) ## (fc): Linear(in_features=20, out_features=1, bias=True) ## ) ## SimpleRNN( ## (rnn): RNN(1, 20, batch_first=True) ## (fc): Linear(in_features=20, out_features=1, bias=True) ## ) ## SimpleRNN( ## (rnn): RNN(1, 20, batch_first=True) ## (fc): Linear(in_features=20, out_features=1, bias=True) ## ) ## SimpleRNN( ## (rnn): RNN(1, 20, batch_first=True) ## (fc): Linear(in_features=20, out_features=1, bias=True) ## ) ## SimpleRNN( ## (rnn): RNN(1, 20, batch_first=True) ## (fc): Linear(in_features=20, out_features=1, bias=True) ## ) ## SimpleRNN( ## (rnn): RNN(1, 20, batch_first=True) ## (fc): Linear(in_features=20, out_features=1, bias=True) ## ) ## SimpleRNN( ## (rnn): RNN(1, 20, batch_first=True) ## (fc): Linear(in_features=20, out_features=1, bias=True) ## ) ## SimpleRNN( ## (rnn): RNN(1, 20, batch_first=True) ## (fc): Linear(in_features=20, out_features=1, bias=True) ## ) ## SimpleRNN( ## (rnn): RNN(1, 20, batch_first=True) ## (fc): Linear(in_features=20, out_features=1, bias=True) ## ) ## SimpleRNN( ## (rnn): RNN(1, 20, batch_first=True) ## (fc): Linear(in_features=20, out_features=1, bias=True) ## ) ## SimpleRNN( ## (rnn): RNN(1, 20, batch_first=True) ## (fc): Linear(in_features=20, out_features=1, bias=True) ## ) ## SimpleRNN( ## (rnn): RNN(1, 20, batch_first=True) ## (fc): Linear(in_features=20, out_features=1, bias=True) ## ) ## SimpleRNN( ## (rnn): RNN(1, 20, batch_first=True) ## (fc): Linear(in_features=20, out_features=1, bias=True) ## ) ## SimpleRNN( ## (rnn): RNN(1, 20, batch_first=True) ## (fc): Linear(in_features=20, out_features=1, bias=True) ## ) ## SimpleRNN( ## (rnn): RNN(1, 20, batch_first=True) ## (fc): Linear(in_features=20, out_features=1, bias=True) ## ) ## SimpleRNN( ## (rnn): RNN(1, 20, batch_first=True) ## (fc): Linear(in_features=20, out_features=1, bias=True) ## ) ## SimpleRNN( ## (rnn): RNN(1, 20, batch_first=True) ## (fc): Linear(in_features=20, out_features=1, bias=True) ## ) ## SimpleRNN( ## (rnn): RNN(1, 20, batch_first=True) ## (fc): Linear(in_features=20, out_features=1, bias=True) ## ) ## SimpleRNN( ## (rnn): RNN(1, 20, batch_first=True) ## (fc): Linear(in_features=20, out_features=1, bias=True) ## ) ## SimpleRNN( ## (rnn): RNN(1, 20, batch_first=True) ## (fc): Linear(in_features=20, out_features=1, bias=True) ## ) ## SimpleRNN( ## (rnn): RNN(1, 20, batch_first=True) ## (fc): Linear(in_features=20, out_features=1, bias=True) ## ) ## SimpleRNN( ## (rnn): RNN(1, 20, batch_first=True) ## (fc): Linear(in_features=20, out_features=1, bias=True) ## ) ## SimpleRNN( ## (rnn): RNN(1, 20, batch_first=True) ## (fc): Linear(in_features=20, out_features=1, bias=True) ## ) ## SimpleRNN( ## (rnn): RNN(1, 20, batch_first=True) ## (fc): Linear(in_features=20, out_features=1, bias=True) ## ) ## Loss: 880.3193359375 ## SimpleRNN( ## (rnn): RNN(1, 20, batch_first=True) ## (fc): Linear(in_features=20, out_features=1, bias=True) ## ) ## SimpleRNN( ## (rnn): RNN(1, 20, batch_first=True) ## (fc): Linear(in_features=20, out_features=1, bias=True) ## ) ## SimpleRNN( ## (rnn): RNN(1, 20, batch_first=True) ## (fc): Linear(in_features=20, out_features=1, bias=True) ## ) ## SimpleRNN( ## (rnn): RNN(1, 20, batch_first=True) ## (fc): Linear(in_features=20, out_features=1, bias=True) ## ) ## SimpleRNN( ## (rnn): RNN(1, 20, batch_first=True) ## (fc): Linear(in_features=20, out_features=1, bias=True) ## ) ## SimpleRNN( ## (rnn): RNN(1, 20, batch_first=True) ## (fc): Linear(in_features=20, out_features=1, bias=True) ## ) ## SimpleRNN( ## (rnn): RNN(1, 20, batch_first=True) ## (fc): Linear(in_features=20, out_features=1, bias=True) ## ) ## SimpleRNN( ## (rnn): RNN(1, 20, batch_first=True) ## (fc): Linear(in_features=20, out_features=1, bias=True) ## ) ## SimpleRNN( ## (rnn): RNN(1, 20, batch_first=True) ## (fc): Linear(in_features=20, out_features=1, bias=True) ## ) ## SimpleRNN( ## (rnn): RNN(1, 20, batch_first=True) ## (fc): Linear(in_features=20, out_features=1, bias=True) ## ) ## SimpleRNN( ## (rnn): RNN(1, 20, batch_first=True) ## (fc): Linear(in_features=20, out_features=1, bias=True) ## ) ## SimpleRNN( ## (rnn): RNN(1, 20, batch_first=True) ## (fc): Linear(in_features=20, out_features=1, bias=True) ## ) ## SimpleRNN( ## (rnn): RNN(1, 20, batch_first=True) ## (fc): Linear(in_features=20, out_features=1, bias=True) ## ) ## SimpleRNN( ## (rnn): RNN(1, 20, batch_first=True) ## (fc): Linear(in_features=20, out_features=1, bias=True) ## ) ## SimpleRNN( ## (rnn): RNN(1, 20, batch_first=True) ## (fc): Linear(in_features=20, out_features=1, bias=True) ## ) ## SimpleRNN( ## (rnn): RNN(1, 20, batch_first=True) ## (fc): Linear(in_features=20, out_features=1, bias=True) ## ) ## SimpleRNN( ## (rnn): RNN(1, 20, batch_first=True) ## (fc): Linear(in_features=20, out_features=1, bias=True) ## ) ## SimpleRNN( ## (rnn): RNN(1, 20, batch_first=True) ## (fc): Linear(in_features=20, out_features=1, bias=True) ## ) ## SimpleRNN( ## (rnn): RNN(1, 20, batch_first=True) ## (fc): Linear(in_features=20, out_features=1, bias=True) ## ) ## SimpleRNN( ## (rnn): RNN(1, 20, batch_first=True) ## (fc): Linear(in_features=20, out_features=1, bias=True) ## ) ## SimpleRNN( ## (rnn): RNN(1, 20, batch_first=True) ## (fc): Linear(in_features=20, out_features=1, bias=True) ## ) ## SimpleRNN( ## (rnn): RNN(1, 20, batch_first=True) ## (fc): Linear(in_features=20, out_features=1, bias=True) ## ) ## SimpleRNN( ## (rnn): RNN(1, 20, batch_first=True) ## (fc): Linear(in_features=20, out_features=1, bias=True) ## ) ## SimpleRNN( ## (rnn): RNN(1, 20, batch_first=True) ## (fc): Linear(in_features=20, out_features=1, bias=True) ## ) ## SimpleRNN( ## (rnn): RNN(1, 20, batch_first=True) ## (fc): Linear(in_features=20, out_features=1, bias=True) ## ) ## SimpleRNN( ## (rnn): RNN(1, 20, batch_first=True) ## (fc): Linear(in_features=20, out_features=1, bias=True) ## ) ## SimpleRNN( ## (rnn): RNN(1, 20, batch_first=True) ## (fc): Linear(in_features=20, out_features=1, bias=True) ## ) ## SimpleRNN( ## (rnn): RNN(1, 20, batch_first=True) ## (fc): Linear(in_features=20, out_features=1, bias=True) ## ) ## SimpleRNN( ## (rnn): RNN(1, 20, batch_first=True) ## (fc): Linear(in_features=20, out_features=1, bias=True) ## ) ## SimpleRNN( ## (rnn): RNN(1, 20, batch_first=True) ## (fc): Linear(in_features=20, out_features=1, bias=True) ## ) ## SimpleRNN( ## (rnn): RNN(1, 20, batch_first=True) ## (fc): Linear(in_features=20, out_features=1, bias=True) ## ) ## SimpleRNN( ## (rnn): RNN(1, 20, batch_first=True) ## (fc): Linear(in_features=20, out_features=1, bias=True) ## ) ## SimpleRNN( ## (rnn): RNN(1, 20, batch_first=True) ## (fc): Linear(in_features=20, out_features=1, bias=True) ## ) ## SimpleRNN( ## (rnn): RNN(1, 20, batch_first=True) ## (fc): Linear(in_features=20, out_features=1, bias=True) ## ) ## SimpleRNN( ## (rnn): RNN(1, 20, batch_first=True) ## (fc): Linear(in_features=20, out_features=1, bias=True) ## ) ## SimpleRNN( ## (rnn): RNN(1, 20, batch_first=True) ## (fc): Linear(in_features=20, out_features=1, bias=True) ## ) ## SimpleRNN( ## (rnn): RNN(1, 20, batch_first=True) ## (fc): Linear(in_features=20, out_features=1, bias=True) ## ) ## SimpleRNN( ## (rnn): RNN(1, 20, batch_first=True) ## (fc): Linear(in_features=20, out_features=1, bias=True) ## ) ## SimpleRNN( ## (rnn): RNN(1, 20, batch_first=True) ## (fc): Linear(in_features=20, out_features=1, bias=True) ## ) ## SimpleRNN( ## (rnn): RNN(1, 20, batch_first=True) ## (fc): Linear(in_features=20, out_features=1, bias=True) ## ) ## SimpleRNN( ## (rnn): RNN(1, 20, batch_first=True) ## (fc): Linear(in_features=20, out_features=1, bias=True) ## ) ## SimpleRNN( ## (rnn): RNN(1, 20, batch_first=True) ## (fc): Linear(in_features=20, out_features=1, bias=True) ## ) ## SimpleRNN( ## (rnn): RNN(1, 20, batch_first=True) ## (fc): Linear(in_features=20, out_features=1, bias=True) ## ) ## SimpleRNN( ## (rnn): RNN(1, 20, batch_first=True) ## (fc): Linear(in_features=20, out_features=1, bias=True) ## ) ## SimpleRNN( ## (rnn): RNN(1, 20, batch_first=True) ## (fc): Linear(in_features=20, out_features=1, bias=True) ## ) ## SimpleRNN( ## (rnn): RNN(1, 20, batch_first=True) ## (fc): Linear(in_features=20, out_features=1, bias=True) ## ) ## SimpleRNN( ## (rnn): RNN(1, 20, batch_first=True) ## (fc): Linear(in_features=20, out_features=1, bias=True) ## ) ## SimpleRNN( ## (rnn): RNN(1, 20, batch_first=True) ## (fc): Linear(in_features=20, out_features=1, bias=True) ## ) ## SimpleRNN( ## (rnn): RNN(1, 20, batch_first=True) ## (fc): Linear(in_features=20, out_features=1, bias=True) ## ) ## SimpleRNN( ## (rnn): RNN(1, 20, batch_first=True) ## (fc): Linear(in_features=20, out_features=1, bias=True) ## ) ## SimpleRNN( ## (rnn): RNN(1, 20, batch_first=True) ## (fc): Linear(in_features=20, out_features=1, bias=True) ## ) ## SimpleRNN( ## (rnn): RNN(1, 20, batch_first=True) ## (fc): Linear(in_features=20, out_features=1, bias=True) ## ) ## SimpleRNN( ## (rnn): RNN(1, 20, batch_first=True) ## (fc): Linear(in_features=20, out_features=1, bias=True) ## ) ## SimpleRNN( ## (rnn): RNN(1, 20, batch_first=True) ## (fc): Linear(in_features=20, out_features=1, bias=True) ## ) ## SimpleRNN( ## (rnn): RNN(1, 20, batch_first=True) ## (fc): Linear(in_features=20, out_features=1, bias=True) ## ) ## SimpleRNN( ## (rnn): RNN(1, 20, batch_first=True) ## (fc): Linear(in_features=20, out_features=1, bias=True) ## ) ## SimpleRNN( ## (rnn): RNN(1, 20, batch_first=True) ## (fc): Linear(in_features=20, out_features=1, bias=True) ## ) ## SimpleRNN( ## (rnn): RNN(1, 20, batch_first=True) ## (fc): Linear(in_features=20, out_features=1, bias=True) ## ) ## SimpleRNN( ## (rnn): RNN(1, 20, batch_first=True) ## (fc): Linear(in_features=20, out_features=1, bias=True) ## ) ## SimpleRNN( ## (rnn): RNN(1, 20, batch_first=True) ## (fc): Linear(in_features=20, out_features=1, bias=True) ## ) ## SimpleRNN( ## (rnn): RNN(1, 20, batch_first=True) ## (fc): Linear(in_features=20, out_features=1, bias=True) ## ) ## SimpleRNN( ## (rnn): RNN(1, 20, batch_first=True) ## (fc): Linear(in_features=20, out_features=1, bias=True) ## ) ## SimpleRNN( ## (rnn): RNN(1, 20, batch_first=True) ## (fc): Linear(in_features=20, out_features=1, bias=True) ## ) ## SimpleRNN( ## (rnn): RNN(1, 20, batch_first=True) ## (fc): Linear(in_features=20, out_features=1, bias=True) ## ) ## SimpleRNN( ## (rnn): RNN(1, 20, batch_first=True) ## (fc): Linear(in_features=20, out_features=1, bias=True) ## ) ## SimpleRNN( ## (rnn): RNN(1, 20, batch_first=True) ## (fc): Linear(in_features=20, out_features=1, bias=True) ## ) ## SimpleRNN( ## (rnn): RNN(1, 20, batch_first=True) ## (fc): Linear(in_features=20, out_features=1, bias=True) ## ) ## SimpleRNN( ## (rnn): RNN(1, 20, batch_first=True) ## (fc): Linear(in_features=20, out_features=1, bias=True) ## ) ## SimpleRNN( ## (rnn): RNN(1, 20, batch_first=True) ## (fc): Linear(in_features=20, out_features=1, bias=True) ## ) ## SimpleRNN( ## (rnn): RNN(1, 20, batch_first=True) ## (fc): Linear(in_features=20, out_features=1, bias=True) ## ) ## SimpleRNN( ## (rnn): RNN(1, 20, batch_first=True) ## (fc): Linear(in_features=20, out_features=1, bias=True) ## ) ## SimpleRNN( ## (rnn): RNN(1, 20, batch_first=True) ## (fc): Linear(in_features=20, out_features=1, bias=True) ## ) ## SimpleRNN( ## (rnn): RNN(1, 20, batch_first=True) ## (fc): Linear(in_features=20, out_features=1, bias=True) ## ) ## SimpleRNN( ## (rnn): RNN(1, 20, batch_first=True) ## (fc): Linear(in_features=20, out_features=1, bias=True) ## ) ## SimpleRNN( ## (rnn): RNN(1, 20, batch_first=True) ## (fc): Linear(in_features=20, out_features=1, bias=True) ## ) ## SimpleRNN( ## (rnn): RNN(1, 20, batch_first=True) ## (fc): Linear(in_features=20, out_features=1, bias=True) ## ) ## SimpleRNN( ## (rnn): RNN(1, 20, batch_first=True) ## (fc): Linear(in_features=20, out_features=1, bias=True) ## ) ## SimpleRNN( ## (rnn): RNN(1, 20, batch_first=True) ## (fc): Linear(in_features=20, out_features=1, bias=True) ## ) ## SimpleRNN( ## (rnn): RNN(1, 20, batch_first=True) ## (fc): Linear(in_features=20, out_features=1, bias=True) ## ) ## SimpleRNN( ## (rnn): RNN(1, 20, batch_first=True) ## (fc): Linear(in_features=20, out_features=1, bias=True) ## ) ## SimpleRNN( ## (rnn): RNN(1, 20, batch_first=True) ## (fc): Linear(in_features=20, out_features=1, bias=True) ## ) ## SimpleRNN( ## (rnn): RNN(1, 20, batch_first=True) ## (fc): Linear(in_features=20, out_features=1, bias=True) ## ) ## SimpleRNN( ## (rnn): RNN(1, 20, batch_first=True) ## (fc): Linear(in_features=20, out_features=1, bias=True) ## ) ## SimpleRNN( ## (rnn): RNN(1, 20, batch_first=True) ## (fc): Linear(in_features=20, out_features=1, bias=True) ## ) ## SimpleRNN( ## (rnn): RNN(1, 20, batch_first=True) ## (fc): Linear(in_features=20, out_features=1, bias=True) ## ) ## SimpleRNN( ## (rnn): RNN(1, 20, batch_first=True) ## (fc): Linear(in_features=20, out_features=1, bias=True) ## ) ## SimpleRNN( ## (rnn): RNN(1, 20, batch_first=True) ## (fc): Linear(in_features=20, out_features=1, bias=True) ## ) ## SimpleRNN( ## (rnn): RNN(1, 20, batch_first=True) ## (fc): Linear(in_features=20, out_features=1, bias=True) ## ) ## SimpleRNN( ## (rnn): RNN(1, 20, batch_first=True) ## (fc): Linear(in_features=20, out_features=1, bias=True) ## ) ## SimpleRNN( ## (rnn): RNN(1, 20, batch_first=True) ## (fc): Linear(in_features=20, out_features=1, bias=True) ## ) ## SimpleRNN( ## (rnn): RNN(1, 20, batch_first=True) ## (fc): Linear(in_features=20, out_features=1, bias=True) ## ) ## SimpleRNN( ## (rnn): RNN(1, 20, batch_first=True) ## (fc): Linear(in_features=20, out_features=1, bias=True) ## ) ## SimpleRNN( ## (rnn): RNN(1, 20, batch_first=True) ## (fc): Linear(in_features=20, out_features=1, bias=True) ## ) ## SimpleRNN( ## (rnn): RNN(1, 20, batch_first=True) ## (fc): Linear(in_features=20, out_features=1, bias=True) ## ) ## SimpleRNN( ## (rnn): RNN(1, 20, batch_first=True) ## (fc): Linear(in_features=20, out_features=1, bias=True) ## ) ## SimpleRNN( ## (rnn): RNN(1, 20, batch_first=True) ## (fc): Linear(in_features=20, out_features=1, bias=True) ## ) ## SimpleRNN( ## (rnn): RNN(1, 20, batch_first=True) ## (fc): Linear(in_features=20, out_features=1, bias=True) ## ) ## SimpleRNN( ## (rnn): RNN(1, 20, batch_first=True) ## (fc): Linear(in_features=20, out_features=1, bias=True) ## ) ## SimpleRNN( ## (rnn): RNN(1, 20, batch_first=True) ## (fc): Linear(in_features=20, out_features=1, bias=True) ## ) ## SimpleRNN( ## (rnn): RNN(1, 20, batch_first=True) ## (fc): Linear(in_features=20, out_features=1, bias=True) ## ) ## Loss: 524.1229858398438 ## SimpleRNN( ## (rnn): RNN(1, 20, batch_first=True) ## (fc): Linear(in_features=20, out_features=1, bias=True) ## ) ## SimpleRNN( ## (rnn): RNN(1, 20, batch_first=True) ## (fc): Linear(in_features=20, out_features=1, bias=True) ## ) ## SimpleRNN( ## (rnn): RNN(1, 20, batch_first=True) ## (fc): Linear(in_features=20, out_features=1, bias=True) ## ) ## SimpleRNN( ## (rnn): RNN(1, 20, batch_first=True) ## (fc): Linear(in_features=20, out_features=1, bias=True) ## ) ## SimpleRNN( ## (rnn): RNN(1, 20, batch_first=True) ## (fc): Linear(in_features=20, out_features=1, bias=True) ## ) ## SimpleRNN( ## (rnn): RNN(1, 20, batch_first=True) ## (fc): Linear(in_features=20, out_features=1, bias=True) ## ) ## SimpleRNN( ## (rnn): RNN(1, 20, batch_first=True) ## (fc): Linear(in_features=20, out_features=1, bias=True) ## ) ## SimpleRNN( ## (rnn): RNN(1, 20, batch_first=True) ## (fc): Linear(in_features=20, out_features=1, bias=True) ## ) ## SimpleRNN( ## (rnn): RNN(1, 20, batch_first=True) ## (fc): Linear(in_features=20, out_features=1, bias=True) ## ) ## SimpleRNN( ## (rnn): RNN(1, 20, batch_first=True) ## (fc): Linear(in_features=20, out_features=1, bias=True) ## ) ## SimpleRNN( ## (rnn): RNN(1, 20, batch_first=True) ## (fc): Linear(in_features=20, out_features=1, bias=True) ## ) ## SimpleRNN( ## (rnn): RNN(1, 20, batch_first=True) ## (fc): Linear(in_features=20, out_features=1, bias=True) ## ) ## SimpleRNN( ## (rnn): RNN(1, 20, batch_first=True) ## (fc): Linear(in_features=20, out_features=1, bias=True) ## ) ## SimpleRNN( ## (rnn): RNN(1, 20, batch_first=True) ## (fc): Linear(in_features=20, out_features=1, bias=True) ## ) ## SimpleRNN( ## (rnn): RNN(1, 20, batch_first=True) ## (fc): Linear(in_features=20, out_features=1, bias=True) ## ) ## SimpleRNN( ## (rnn): RNN(1, 20, batch_first=True) ## (fc): Linear(in_features=20, out_features=1, bias=True) ## ) ## SimpleRNN( ## (rnn): RNN(1, 20, batch_first=True) ## (fc): Linear(in_features=20, out_features=1, bias=True) ## ) ## SimpleRNN( ## (rnn): RNN(1, 20, batch_first=True) ## (fc): Linear(in_features=20, out_features=1, bias=True) ## ) ## SimpleRNN( ## (rnn): RNN(1, 20, batch_first=True) ## (fc): Linear(in_features=20, out_features=1, bias=True) ## ) ## SimpleRNN( ## (rnn): RNN(1, 20, batch_first=True) ## (fc): Linear(in_features=20, out_features=1, bias=True) ## ) ## SimpleRNN( ## (rnn): RNN(1, 20, batch_first=True) ## (fc): Linear(in_features=20, out_features=1, bias=True) ## ) ## SimpleRNN( ## (rnn): RNN(1, 20, batch_first=True) ## (fc): Linear(in_features=20, out_features=1, bias=True) ## ) ## SimpleRNN( ## (rnn): RNN(1, 20, batch_first=True) ## (fc): Linear(in_features=20, out_features=1, bias=True) ## ) ## SimpleRNN( ## (rnn): RNN(1, 20, batch_first=True) ## (fc): Linear(in_features=20, out_features=1, bias=True) ## ) ## SimpleRNN( ## (rnn): RNN(1, 20, batch_first=True) ## (fc): Linear(in_features=20, out_features=1, bias=True) ## ) ## SimpleRNN( ## (rnn): RNN(1, 20, batch_first=True) ## (fc): Linear(in_features=20, out_features=1, bias=True) ## ) ## SimpleRNN( ## (rnn): RNN(1, 20, batch_first=True) ## (fc): Linear(in_features=20, out_features=1, bias=True) ## ) ## SimpleRNN( ## (rnn): RNN(1, 20, batch_first=True) ## (fc): Linear(in_features=20, out_features=1, bias=True) ## ) ## SimpleRNN( ## (rnn): RNN(1, 20, batch_first=True) ## (fc): Linear(in_features=20, out_features=1, bias=True) ## ) ## SimpleRNN( ## (rnn): RNN(1, 20, batch_first=True) ## (fc): Linear(in_features=20, out_features=1, bias=True) ## ) ## SimpleRNN( ## (rnn): RNN(1, 20, batch_first=True) ## (fc): Linear(in_features=20, out_features=1, bias=True) ## ) ## SimpleRNN( ## (rnn): RNN(1, 20, batch_first=True) ## (fc): Linear(in_features=20, out_features=1, bias=True) ## ) ## SimpleRNN( ## (rnn): RNN(1, 20, batch_first=True) ## (fc): Linear(in_features=20, out_features=1, bias=True) ## ) ## SimpleRNN( ## (rnn): RNN(1, 20, batch_first=True) ## (fc): Linear(in_features=20, out_features=1, bias=True) ## ) ## SimpleRNN( ## (rnn): RNN(1, 20, batch_first=True) ## (fc): Linear(in_features=20, out_features=1, bias=True) ## ) ## SimpleRNN( ## (rnn): RNN(1, 20, batch_first=True) ## (fc): Linear(in_features=20, out_features=1, bias=True) ## ) ## SimpleRNN( ## (rnn): RNN(1, 20, batch_first=True) ## (fc): Linear(in_features=20, out_features=1, bias=True) ## ) ## SimpleRNN( ## (rnn): RNN(1, 20, batch_first=True) ## (fc): Linear(in_features=20, out_features=1, bias=True) ## ) ## SimpleRNN( ## (rnn): RNN(1, 20, batch_first=True) ## (fc): Linear(in_features=20, out_features=1, bias=True) ## ) ## SimpleRNN( ## (rnn): RNN(1, 20, batch_first=True) ## (fc): Linear(in_features=20, out_features=1, bias=True) ## ) ## SimpleRNN( ## (rnn): RNN(1, 20, batch_first=True) ## (fc): Linear(in_features=20, out_features=1, bias=True) ## ) ## SimpleRNN( ## (rnn): RNN(1, 20, batch_first=True) ## (fc): Linear(in_features=20, out_features=1, bias=True) ## ) ## SimpleRNN( ## (rnn): RNN(1, 20, batch_first=True) ## (fc): Linear(in_features=20, out_features=1, bias=True) ## ) ## SimpleRNN( ## (rnn): RNN(1, 20, batch_first=True) ## (fc): Linear(in_features=20, out_features=1, bias=True) ## ) ## SimpleRNN( ## (rnn): RNN(1, 20, batch_first=True) ## (fc): Linear(in_features=20, out_features=1, bias=True) ## ) ## SimpleRNN( ## (rnn): RNN(1, 20, batch_first=True) ## (fc): Linear(in_features=20, out_features=1, bias=True) ## ) ## SimpleRNN( ## (rnn): RNN(1, 20, batch_first=True) ## (fc): Linear(in_features=20, out_features=1, bias=True) ## ) ## SimpleRNN( ## (rnn): RNN(1, 20, batch_first=True) ## (fc): Linear(in_features=20, out_features=1, bias=True) ## ) ## SimpleRNN( ## (rnn): RNN(1, 20, batch_first=True) ## (fc): Linear(in_features=20, out_features=1, bias=True) ## ) ## SimpleRNN( ## (rnn): RNN(1, 20, batch_first=True) ## (fc): Linear(in_features=20, out_features=1, bias=True) ## ) ## SimpleRNN( ## (rnn): RNN(1, 20, batch_first=True) ## (fc): Linear(in_features=20, out_features=1, bias=True) ## ) ## SimpleRNN( ## (rnn): RNN(1, 20, batch_first=True) ## (fc): Linear(in_features=20, out_features=1, bias=True) ## ) ## SimpleRNN( ## (rnn): RNN(1, 20, batch_first=True) ## (fc): Linear(in_features=20, out_features=1, bias=True) ## ) ## SimpleRNN( ## (rnn): RNN(1, 20, batch_first=True) ## (fc): Linear(in_features=20, out_features=1, bias=True) ## ) ## SimpleRNN( ## (rnn): RNN(1, 20, batch_first=True) ## (fc): Linear(in_features=20, out_features=1, bias=True) ## ) ## SimpleRNN( ## (rnn): RNN(1, 20, batch_first=True) ## (fc): Linear(in_features=20, out_features=1, bias=True) ## ) ## SimpleRNN( ## (rnn): RNN(1, 20, batch_first=True) ## (fc): Linear(in_features=20, out_features=1, bias=True) ## ) ## SimpleRNN( ## (rnn): RNN(1, 20, batch_first=True) ## (fc): Linear(in_features=20, out_features=1, bias=True) ## ) ## SimpleRNN( ## (rnn): RNN(1, 20, batch_first=True) ## (fc): Linear(in_features=20, out_features=1, bias=True) ## ) ## SimpleRNN( ## (rnn): RNN(1, 20, batch_first=True) ## (fc): Linear(in_features=20, out_features=1, bias=True) ## ) ## SimpleRNN( ## (rnn): RNN(1, 20, batch_first=True) ## (fc): Linear(in_features=20, out_features=1, bias=True) ## ) ## SimpleRNN( ## (rnn): RNN(1, 20, batch_first=True) ## (fc): Linear(in_features=20, out_features=1, bias=True) ## ) ## SimpleRNN( ## (rnn): RNN(1, 20, batch_first=True) ## (fc): Linear(in_features=20, out_features=1, bias=True) ## ) ## SimpleRNN( ## (rnn): RNN(1, 20, batch_first=True) ## (fc): Linear(in_features=20, out_features=1, bias=True) ## ) ## SimpleRNN( ## (rnn): RNN(1, 20, batch_first=True) ## (fc): Linear(in_features=20, out_features=1, bias=True) ## ) ## SimpleRNN( ## (rnn): RNN(1, 20, batch_first=True) ## (fc): Linear(in_features=20, out_features=1, bias=True) ## ) ## SimpleRNN( ## (rnn): RNN(1, 20, batch_first=True) ## (fc): Linear(in_features=20, out_features=1, bias=True) ## ) ## SimpleRNN( ## (rnn): RNN(1, 20, batch_first=True) ## (fc): Linear(in_features=20, out_features=1, bias=True) ## ) ## SimpleRNN( ## (rnn): RNN(1, 20, batch_first=True) ## (fc): Linear(in_features=20, out_features=1, bias=True) ## ) ## SimpleRNN( ## (rnn): RNN(1, 20, batch_first=True) ## (fc): Linear(in_features=20, out_features=1, bias=True) ## ) ## SimpleRNN( ## (rnn): RNN(1, 20, batch_first=True) ## (fc): Linear(in_features=20, out_features=1, bias=True) ## ) ## SimpleRNN( ## (rnn): RNN(1, 20, batch_first=True) ## (fc): Linear(in_features=20, out_features=1, bias=True) ## ) ## SimpleRNN( ## (rnn): RNN(1, 20, batch_first=True) ## (fc): Linear(in_features=20, out_features=1, bias=True) ## ) ## SimpleRNN( ## (rnn): RNN(1, 20, batch_first=True) ## (fc): Linear(in_features=20, out_features=1, bias=True) ## ) ## SimpleRNN( ## (rnn): RNN(1, 20, batch_first=True) ## (fc): Linear(in_features=20, out_features=1, bias=True) ## ) ## SimpleRNN( ## (rnn): RNN(1, 20, batch_first=True) ## (fc): Linear(in_features=20, out_features=1, bias=True) ## ) ## SimpleRNN( ## (rnn): RNN(1, 20, batch_first=True) ## (fc): Linear(in_features=20, out_features=1, bias=True) ## ) ## SimpleRNN( ## (rnn): RNN(1, 20, batch_first=True) ## (fc): Linear(in_features=20, out_features=1, bias=True) ## ) ## SimpleRNN( ## (rnn): RNN(1, 20, batch_first=True) ## (fc): Linear(in_features=20, out_features=1, bias=True) ## ) ## SimpleRNN( ## (rnn): RNN(1, 20, batch_first=True) ## (fc): Linear(in_features=20, out_features=1, bias=True) ## ) ## SimpleRNN( ## (rnn): RNN(1, 20, batch_first=True) ## (fc): Linear(in_features=20, out_features=1, bias=True) ## ) ## SimpleRNN( ## (rnn): RNN(1, 20, batch_first=True) ## (fc): Linear(in_features=20, out_features=1, bias=True) ## ) ## SimpleRNN( ## (rnn): RNN(1, 20, batch_first=True) ## (fc): Linear(in_features=20, out_features=1, bias=True) ## ) ## SimpleRNN( ## (rnn): RNN(1, 20, batch_first=True) ## (fc): Linear(in_features=20, out_features=1, bias=True) ## ) ## SimpleRNN( ## (rnn): RNN(1, 20, batch_first=True) ## (fc): Linear(in_features=20, out_features=1, bias=True) ## ) ## SimpleRNN( ## (rnn): RNN(1, 20, batch_first=True) ## (fc): Linear(in_features=20, out_features=1, bias=True) ## ) ## SimpleRNN( ## (rnn): RNN(1, 20, batch_first=True) ## (fc): Linear(in_features=20, out_features=1, bias=True) ## ) ## SimpleRNN( ## (rnn): RNN(1, 20, batch_first=True) ## (fc): Linear(in_features=20, out_features=1, bias=True) ## ) ## SimpleRNN( ## (rnn): RNN(1, 20, batch_first=True) ## (fc): Linear(in_features=20, out_features=1, bias=True) ## ) ## SimpleRNN( ## (rnn): RNN(1, 20, batch_first=True) ## (fc): Linear(in_features=20, out_features=1, bias=True) ## ) ## SimpleRNN( ## (rnn): RNN(1, 20, batch_first=True) ## (fc): Linear(in_features=20, out_features=1, bias=True) ## ) ## SimpleRNN( ## (rnn): RNN(1, 20, batch_first=True) ## (fc): Linear(in_features=20, out_features=1, bias=True) ## ) ## SimpleRNN( ## (rnn): RNN(1, 20, batch_first=True) ## (fc): Linear(in_features=20, out_features=1, bias=True) ## ) ## SimpleRNN( ## (rnn): RNN(1, 20, batch_first=True) ## (fc): Linear(in_features=20, out_features=1, bias=True) ## ) ## SimpleRNN( ## (rnn): RNN(1, 20, batch_first=True) ## (fc): Linear(in_features=20, out_features=1, bias=True) ## ) ## SimpleRNN( ## (rnn): RNN(1, 20, batch_first=True) ## (fc): Linear(in_features=20, out_features=1, bias=True) ## ) ## SimpleRNN( ## (rnn): RNN(1, 20, batch_first=True) ## (fc): Linear(in_features=20, out_features=1, bias=True) ## ) ## SimpleRNN( ## (rnn): RNN(1, 20, batch_first=True) ## (fc): Linear(in_features=20, out_features=1, bias=True) ## ) ## SimpleRNN( ## (rnn): RNN(1, 20, batch_first=True) ## (fc): Linear(in_features=20, out_features=1, bias=True) ## ) ## SimpleRNN( ## (rnn): RNN(1, 20, batch_first=True) ## (fc): Linear(in_features=20, out_features=1, bias=True) ## ) ## Loss: 595.3013305664062 ## SimpleRNN( ## (rnn): RNN(1, 20, batch_first=True) ## (fc): Linear(in_features=20, out_features=1, bias=True) ## ) ## SimpleRNN( ## (rnn): RNN(1, 20, batch_first=True) ## (fc): Linear(in_features=20, out_features=1, bias=True) ## ) ## SimpleRNN( ## (rnn): RNN(1, 20, batch_first=True) ## (fc): Linear(in_features=20, out_features=1, bias=True) ## ) ## SimpleRNN( ## (rnn): RNN(1, 20, batch_first=True) ## (fc): Linear(in_features=20, out_features=1, bias=True) ## ) ## SimpleRNN( ## (rnn): RNN(1, 20, batch_first=True) ## (fc): Linear(in_features=20, out_features=1, bias=True) ## ) ## SimpleRNN( ## (rnn): RNN(1, 20, batch_first=True) ## (fc): Linear(in_features=20, out_features=1, bias=True) ## ) ## SimpleRNN( ## (rnn): RNN(1, 20, batch_first=True) ## (fc): Linear(in_features=20, out_features=1, bias=True) ## ) ## SimpleRNN( ## (rnn): RNN(1, 20, batch_first=True) ## (fc): Linear(in_features=20, out_features=1, bias=True) ## ) ## SimpleRNN( ## (rnn): RNN(1, 20, batch_first=True) ## (fc): Linear(in_features=20, out_features=1, bias=True) ## ) ## SimpleRNN( ## (rnn): RNN(1, 20, batch_first=True) ## (fc): Linear(in_features=20, out_features=1, bias=True) ## ) ## SimpleRNN( ## (rnn): RNN(1, 20, batch_first=True) ## (fc): Linear(in_features=20, out_features=1, bias=True) ## ) ## SimpleRNN( ## (rnn): RNN(1, 20, batch_first=True) ## (fc): Linear(in_features=20, out_features=1, bias=True) ## ) ## SimpleRNN( ## (rnn): RNN(1, 20, batch_first=True) ## (fc): Linear(in_features=20, out_features=1, bias=True) ## ) ## SimpleRNN( ## (rnn): RNN(1, 20, batch_first=True) ## (fc): Linear(in_features=20, out_features=1, bias=True) ## ) ## SimpleRNN( ## (rnn): RNN(1, 20, batch_first=True) ## (fc): Linear(in_features=20, out_features=1, bias=True) ## ) ## SimpleRNN( ## (rnn): RNN(1, 20, batch_first=True) ## (fc): Linear(in_features=20, out_features=1, bias=True) ## ) ## SimpleRNN( ## (rnn): RNN(1, 20, batch_first=True) ## (fc): Linear(in_features=20, out_features=1, bias=True) ## ) ## SimpleRNN( ## (rnn): RNN(1, 20, batch_first=True) ## (fc): Linear(in_features=20, out_features=1, bias=True) ## ) ## SimpleRNN( ## (rnn): RNN(1, 20, batch_first=True) ## (fc): Linear(in_features=20, out_features=1, bias=True) ## ) ## SimpleRNN( ## (rnn): RNN(1, 20, batch_first=True) ## (fc): Linear(in_features=20, out_features=1, bias=True) ## ) ## SimpleRNN( ## (rnn): RNN(1, 20, batch_first=True) ## (fc): Linear(in_features=20, out_features=1, bias=True) ## ) ## SimpleRNN( ## (rnn): RNN(1, 20, batch_first=True) ## (fc): Linear(in_features=20, out_features=1, bias=True) ## ) ## SimpleRNN( ## (rnn): RNN(1, 20, batch_first=True) ## (fc): Linear(in_features=20, out_features=1, bias=True) ## ) ## SimpleRNN( ## (rnn): RNN(1, 20, batch_first=True) ## (fc): Linear(in_features=20, out_features=1, bias=True) ## ) ## SimpleRNN( ## (rnn): RNN(1, 20, batch_first=True) ## (fc): Linear(in_features=20, out_features=1, bias=True) ## ) ## SimpleRNN( ## (rnn): RNN(1, 20, batch_first=True) ## (fc): Linear(in_features=20, out_features=1, bias=True) ## ) ## SimpleRNN( ## (rnn): RNN(1, 20, batch_first=True) ## (fc): Linear(in_features=20, out_features=1, bias=True) ## ) ## SimpleRNN( ## (rnn): RNN(1, 20, batch_first=True) ## (fc): Linear(in_features=20, out_features=1, bias=True) ## ) ## SimpleRNN( ## (rnn): RNN(1, 20, batch_first=True) ## (fc): Linear(in_features=20, out_features=1, bias=True) ## ) ## SimpleRNN( ## (rnn): RNN(1, 20, batch_first=True) ## (fc): Linear(in_features=20, out_features=1, bias=True) ## ) ## SimpleRNN( ## (rnn): RNN(1, 20, batch_first=True) ## (fc): Linear(in_features=20, out_features=1, bias=True) ## ) ## SimpleRNN( ## (rnn): RNN(1, 20, batch_first=True) ## (fc): Linear(in_features=20, out_features=1, bias=True) ## ) ## SimpleRNN( ## (rnn): RNN(1, 20, batch_first=True) ## (fc): Linear(in_features=20, out_features=1, bias=True) ## ) ## SimpleRNN( ## (rnn): RNN(1, 20, batch_first=True) ## (fc): Linear(in_features=20, out_features=1, bias=True) ## ) ## SimpleRNN( ## (rnn): RNN(1, 20, batch_first=True) ## (fc): Linear(in_features=20, out_features=1, bias=True) ## ) ## SimpleRNN( ## (rnn): RNN(1, 20, batch_first=True) ## (fc): Linear(in_features=20, out_features=1, bias=True) ## ) ## SimpleRNN( ## (rnn): RNN(1, 20, batch_first=True) ## (fc): Linear(in_features=20, out_features=1, bias=True) ## ) ## SimpleRNN( ## (rnn): RNN(1, 20, batch_first=True) ## (fc): Linear(in_features=20, out_features=1, bias=True) ## ) ## SimpleRNN( ## (rnn): RNN(1, 20, batch_first=True) ## (fc): Linear(in_features=20, out_features=1, bias=True) ## ) ## SimpleRNN( ## (rnn): RNN(1, 20, batch_first=True) ## (fc): Linear(in_features=20, out_features=1, bias=True) ## ) ## SimpleRNN( ## (rnn): RNN(1, 20, batch_first=True) ## (fc): Linear(in_features=20, out_features=1, bias=True) ## ) ## SimpleRNN( ## (rnn): RNN(1, 20, batch_first=True) ## (fc): Linear(in_features=20, out_features=1, bias=True) ## ) ## SimpleRNN( ## (rnn): RNN(1, 20, batch_first=True) ## (fc): Linear(in_features=20, out_features=1, bias=True) ## ) ## SimpleRNN( ## (rnn): RNN(1, 20, batch_first=True) ## (fc): Linear(in_features=20, out_features=1, bias=True) ## ) ## SimpleRNN( ## (rnn): RNN(1, 20, batch_first=True) ## (fc): Linear(in_features=20, out_features=1, bias=True) ## ) ## SimpleRNN( ## (rnn): RNN(1, 20, batch_first=True) ## (fc): Linear(in_features=20, out_features=1, bias=True) ## ) ## SimpleRNN( ## (rnn): RNN(1, 20, batch_first=True) ## (fc): Linear(in_features=20, out_features=1, bias=True) ## ) ## SimpleRNN( ## (rnn): RNN(1, 20, batch_first=True) ## (fc): Linear(in_features=20, out_features=1, bias=True) ## ) ## SimpleRNN( ## (rnn): RNN(1, 20, batch_first=True) ## (fc): Linear(in_features=20, out_features=1, bias=True) ## ) ## SimpleRNN( ## (rnn): RNN(1, 20, batch_first=True) ## (fc): Linear(in_features=20, out_features=1, bias=True) ## ) ## SimpleRNN( ## (rnn): RNN(1, 20, batch_first=True) ## (fc): Linear(in_features=20, out_features=1, bias=True) ## ) ## SimpleRNN( ## (rnn): RNN(1, 20, batch_first=True) ## (fc): Linear(in_features=20, out_features=1, bias=True) ## ) ## SimpleRNN( ## (rnn): RNN(1, 20, batch_first=True) ## (fc): Linear(in_features=20, out_features=1, bias=True) ## ) ## SimpleRNN( ## (rnn): RNN(1, 20, batch_first=True) ## (fc): Linear(in_features=20, out_features=1, bias=True) ## ) ## SimpleRNN( ## (rnn): RNN(1, 20, batch_first=True) ## (fc): Linear(in_features=20, out_features=1, bias=True) ## ) ## SimpleRNN( ## (rnn): RNN(1, 20, batch_first=True) ## (fc): Linear(in_features=20, out_features=1, bias=True) ## ) ## SimpleRNN( ## (rnn): RNN(1, 20, batch_first=True) ## (fc): Linear(in_features=20, out_features=1, bias=True) ## ) ## SimpleRNN( ## (rnn): RNN(1, 20, batch_first=True) ## (fc): Linear(in_features=20, out_features=1, bias=True) ## ) ## SimpleRNN( ## (rnn): RNN(1, 20, batch_first=True) ## (fc): Linear(in_features=20, out_features=1, bias=True) ## ) ## SimpleRNN( ## (rnn): RNN(1, 20, batch_first=True) ## (fc): Linear(in_features=20, out_features=1, bias=True) ## ) ## SimpleRNN( ## (rnn): RNN(1, 20, batch_first=True) ## (fc): Linear(in_features=20, out_features=1, bias=True) ## ) ## SimpleRNN( ## (rnn): RNN(1, 20, batch_first=True) ## (fc): Linear(in_features=20, out_features=1, bias=True) ## ) ## SimpleRNN( ## (rnn): RNN(1, 20, batch_first=True) ## (fc): Linear(in_features=20, out_features=1, bias=True) ## ) ## SimpleRNN( ## (rnn): RNN(1, 20, batch_first=True) ## (fc): Linear(in_features=20, out_features=1, bias=True) ## ) ## SimpleRNN( ## (rnn): RNN(1, 20, batch_first=True) ## (fc): Linear(in_features=20, out_features=1, bias=True) ## ) ## SimpleRNN( ## (rnn): RNN(1, 20, batch_first=True) ## (fc): Linear(in_features=20, out_features=1, bias=True) ## ) ## SimpleRNN( ## (rnn): RNN(1, 20, batch_first=True) ## (fc): Linear(in_features=20, out_features=1, bias=True) ## ) ## SimpleRNN( ## (rnn): RNN(1, 20, batch_first=True) ## (fc): Linear(in_features=20, out_features=1, bias=True) ## ) ## SimpleRNN( ## (rnn): RNN(1, 20, batch_first=True) ## (fc): Linear(in_features=20, out_features=1, bias=True) ## ) ## SimpleRNN( ## (rnn): RNN(1, 20, batch_first=True) ## (fc): Linear(in_features=20, out_features=1, bias=True) ## ) ## SimpleRNN( ## (rnn): RNN(1, 20, batch_first=True) ## (fc): Linear(in_features=20, out_features=1, bias=True) ## ) ## SimpleRNN( ## (rnn): RNN(1, 20, batch_first=True) ## (fc): Linear(in_features=20, out_features=1, bias=True) ## ) ## SimpleRNN( ## (rnn): RNN(1, 20, batch_first=True) ## (fc): Linear(in_features=20, out_features=1, bias=True) ## ) ## SimpleRNN( ## (rnn): RNN(1, 20, batch_first=True) ## (fc): Linear(in_features=20, out_features=1, bias=True) ## ) ## SimpleRNN( ## (rnn): RNN(1, 20, batch_first=True) ## (fc): Linear(in_features=20, out_features=1, bias=True) ## ) ## SimpleRNN( ## (rnn): RNN(1, 20, batch_first=True) ## (fc): Linear(in_features=20, out_features=1, bias=True) ## ) ## SimpleRNN( ## (rnn): RNN(1, 20, batch_first=True) ## (fc): Linear(in_features=20, out_features=1, bias=True) ## ) ## SimpleRNN( ## (rnn): RNN(1, 20, batch_first=True) ## (fc): Linear(in_features=20, out_features=1, bias=True) ## ) ## SimpleRNN( ## (rnn): RNN(1, 20, batch_first=True) ## (fc): Linear(in_features=20, out_features=1, bias=True) ## ) ## SimpleRNN( ## (rnn): RNN(1, 20, batch_first=True) ## (fc): Linear(in_features=20, out_features=1, bias=True) ## ) ## SimpleRNN( ## (rnn): RNN(1, 20, batch_first=True) ## (fc): Linear(in_features=20, out_features=1, bias=True) ## ) ## SimpleRNN( ## (rnn): RNN(1, 20, batch_first=True) ## (fc): Linear(in_features=20, out_features=1, bias=True) ## ) ## SimpleRNN( ## (rnn): RNN(1, 20, batch_first=True) ## (fc): Linear(in_features=20, out_features=1, bias=True) ## ) ## SimpleRNN( ## (rnn): RNN(1, 20, batch_first=True) ## (fc): Linear(in_features=20, out_features=1, bias=True) ## ) ## SimpleRNN( ## (rnn): RNN(1, 20, batch_first=True) ## (fc): Linear(in_features=20, out_features=1, bias=True) ## ) ## SimpleRNN( ## (rnn): RNN(1, 20, batch_first=True) ## (fc): Linear(in_features=20, out_features=1, bias=True) ## ) ## SimpleRNN( ## (rnn): RNN(1, 20, batch_first=True) ## (fc): Linear(in_features=20, out_features=1, bias=True) ## ) ## SimpleRNN( ## (rnn): RNN(1, 20, batch_first=True) ## (fc): Linear(in_features=20, out_features=1, bias=True) ## ) ## SimpleRNN( ## (rnn): RNN(1, 20, batch_first=True) ## (fc): Linear(in_features=20, out_features=1, bias=True) ## ) ## SimpleRNN( ## (rnn): RNN(1, 20, batch_first=True) ## (fc): Linear(in_features=20, out_features=1, bias=True) ## ) ## SimpleRNN( ## (rnn): RNN(1, 20, batch_first=True) ## (fc): Linear(in_features=20, out_features=1, bias=True) ## ) ## SimpleRNN( ## (rnn): RNN(1, 20, batch_first=True) ## (fc): Linear(in_features=20, out_features=1, bias=True) ## ) ## SimpleRNN( ## (rnn): RNN(1, 20, batch_first=True) ## (fc): Linear(in_features=20, out_features=1, bias=True) ## ) ## SimpleRNN( ## (rnn): RNN(1, 20, batch_first=True) ## (fc): Linear(in_features=20, out_features=1, bias=True) ## ) ## SimpleRNN( ## (rnn): RNN(1, 20, batch_first=True) ## (fc): Linear(in_features=20, out_features=1, bias=True) ## ) ## SimpleRNN( ## (rnn): RNN(1, 20, batch_first=True) ## (fc): Linear(in_features=20, out_features=1, bias=True) ## ) ## SimpleRNN( ## (rnn): RNN(1, 20, batch_first=True) ## (fc): Linear(in_features=20, out_features=1, bias=True) ## ) ## SimpleRNN( ## (rnn): RNN(1, 20, batch_first=True) ## (fc): Linear(in_features=20, out_features=1, bias=True) ## ) ## SimpleRNN( ## (rnn): RNN(1, 20, batch_first=True) ## (fc): Linear(in_features=20, out_features=1, bias=True) ## ) ## SimpleRNN( ## (rnn): RNN(1, 20, batch_first=True) ## (fc): Linear(in_features=20, out_features=1, bias=True) ## ) ## Loss: 2961.601806640625 ## SimpleRNN( ## (rnn): RNN(1, 20, batch_first=True) ## (fc): Linear(in_features=20, out_features=1, bias=True) ## ) ## SimpleRNN( ## (rnn): RNN(1, 20, batch_first=True) ## (fc): Linear(in_features=20, out_features=1, bias=True) ## ) ## SimpleRNN( ## (rnn): RNN(1, 20, batch_first=True) ## (fc): Linear(in_features=20, out_features=1, bias=True) ## ) ## SimpleRNN( ## (rnn): RNN(1, 20, batch_first=True) ## (fc): Linear(in_features=20, out_features=1, bias=True) ## ) ## SimpleRNN( ## (rnn): RNN(1, 20, batch_first=True) ## (fc): Linear(in_features=20, out_features=1, bias=True) ## ) ## SimpleRNN( ## (rnn): RNN(1, 20, batch_first=True) ## (fc): Linear(in_features=20, out_features=1, bias=True) ## ) ## SimpleRNN( ## (rnn): RNN(1, 20, batch_first=True) ## (fc): Linear(in_features=20, out_features=1, bias=True) ## ) ## SimpleRNN( ## (rnn): RNN(1, 20, batch_first=True) ## (fc): Linear(in_features=20, out_features=1, bias=True) ## ) ## SimpleRNN( ## (rnn): RNN(1, 20, batch_first=True) ## (fc): Linear(in_features=20, out_features=1, bias=True) ## ) ## SimpleRNN( ## (rnn): RNN(1, 20, batch_first=True) ## (fc): Linear(in_features=20, out_features=1, bias=True) ## ) ## SimpleRNN( ## (rnn): RNN(1, 20, batch_first=True) ## (fc): Linear(in_features=20, out_features=1, bias=True) ## ) ## SimpleRNN( ## (rnn): RNN(1, 20, batch_first=True) ## (fc): Linear(in_features=20, out_features=1, bias=True) ## ) ## SimpleRNN( ## (rnn): RNN(1, 20, batch_first=True) ## (fc): Linear(in_features=20, out_features=1, bias=True) ## ) ## SimpleRNN( ## (rnn): RNN(1, 20, batch_first=True) ## (fc): Linear(in_features=20, out_features=1, bias=True) ## ) ## SimpleRNN( ## (rnn): RNN(1, 20, batch_first=True) ## (fc): Linear(in_features=20, out_features=1, bias=True) ## ) ## SimpleRNN( ## (rnn): RNN(1, 20, batch_first=True) ## (fc): Linear(in_features=20, out_features=1, bias=True) ## ) ## SimpleRNN( ## (rnn): RNN(1, 20, batch_first=True) ## (fc): Linear(in_features=20, out_features=1, bias=True) ## ) ## SimpleRNN( ## (rnn): RNN(1, 20, batch_first=True) ## (fc): Linear(in_features=20, out_features=1, bias=True) ## ) ## SimpleRNN( ## (rnn): RNN(1, 20, batch_first=True) ## (fc): Linear(in_features=20, out_features=1, bias=True) ## ) ## SimpleRNN( ## (rnn): RNN(1, 20, batch_first=True) ## (fc): Linear(in_features=20, out_features=1, bias=True) ## ) ## SimpleRNN( ## (rnn): RNN(1, 20, batch_first=True) ## (fc): Linear(in_features=20, out_features=1, bias=True) ## ) ## SimpleRNN( ## (rnn): RNN(1, 20, batch_first=True) ## (fc): Linear(in_features=20, out_features=1, bias=True) ## ) ## SimpleRNN( ## (rnn): RNN(1, 20, batch_first=True) ## (fc): Linear(in_features=20, out_features=1, bias=True) ## ) ## SimpleRNN( ## (rnn): RNN(1, 20, batch_first=True) ## (fc): Linear(in_features=20, out_features=1, bias=True) ## ) ## SimpleRNN( ## (rnn): RNN(1, 20, batch_first=True) ## (fc): Linear(in_features=20, out_features=1, bias=True) ## ) ## SimpleRNN( ## (rnn): RNN(1, 20, batch_first=True) ## (fc): Linear(in_features=20, out_features=1, bias=True) ## ) ## SimpleRNN( ## (rnn): RNN(1, 20, batch_first=True) ## (fc): Linear(in_features=20, out_features=1, bias=True) ## ) ## SimpleRNN( ## (rnn): RNN(1, 20, batch_first=True) ## (fc): Linear(in_features=20, out_features=1, bias=True) ## ) ## SimpleRNN( ## (rnn): RNN(1, 20, batch_first=True) ## (fc): Linear(in_features=20, out_features=1, bias=True) ## ) ## SimpleRNN( ## (rnn): RNN(1, 20, batch_first=True) ## (fc): Linear(in_features=20, out_features=1, bias=True) ## ) ## SimpleRNN( ## (rnn): RNN(1, 20, batch_first=True) ## (fc): Linear(in_features=20, out_features=1, bias=True) ## ) ## SimpleRNN( ## (rnn): RNN(1, 20, batch_first=True) ## (fc): Linear(in_features=20, out_features=1, bias=True) ## ) ## SimpleRNN( ## (rnn): RNN(1, 20, batch_first=True) ## (fc): Linear(in_features=20, out_features=1, bias=True) ## ) ## SimpleRNN( ## (rnn): RNN(1, 20, batch_first=True) ## (fc): Linear(in_features=20, out_features=1, bias=True) ## ) ## SimpleRNN( ## (rnn): RNN(1, 20, batch_first=True) ## (fc): Linear(in_features=20, out_features=1, bias=True) ## ) ## SimpleRNN( ## (rnn): RNN(1, 20, batch_first=True) ## (fc): Linear(in_features=20, out_features=1, bias=True) ## ) ## SimpleRNN( ## (rnn): RNN(1, 20, batch_first=True) ## (fc): Linear(in_features=20, out_features=1, bias=True) ## ) ## SimpleRNN( ## (rnn): RNN(1, 20, batch_first=True) ## (fc): Linear(in_features=20, out_features=1, bias=True) ## ) ## SimpleRNN( ## (rnn): RNN(1, 20, batch_first=True) ## (fc): Linear(in_features=20, out_features=1, bias=True) ## ) ## SimpleRNN( ## (rnn): RNN(1, 20, batch_first=True) ## (fc): Linear(in_features=20, out_features=1, bias=True) ## ) ## SimpleRNN( ## (rnn): RNN(1, 20, batch_first=True) ## (fc): Linear(in_features=20, out_features=1, bias=True) ## ) ## SimpleRNN( ## (rnn): RNN(1, 20, batch_first=True) ## (fc): Linear(in_features=20, out_features=1, bias=True) ## ) ## SimpleRNN( ## (rnn): RNN(1, 20, batch_first=True) ## (fc): Linear(in_features=20, out_features=1, bias=True) ## ) ## SimpleRNN( ## (rnn): RNN(1, 20, batch_first=True) ## (fc): Linear(in_features=20, out_features=1, bias=True) ## ) ## SimpleRNN( ## (rnn): RNN(1, 20, batch_first=True) ## (fc): Linear(in_features=20, out_features=1, bias=True) ## ) ## SimpleRNN( ## (rnn): RNN(1, 20, batch_first=True) ## (fc): Linear(in_features=20, out_features=1, bias=True) ## ) ## SimpleRNN( ## (rnn): RNN(1, 20, batch_first=True) ## (fc): Linear(in_features=20, out_features=1, bias=True) ## ) ## SimpleRNN( ## (rnn): RNN(1, 20, batch_first=True) ## (fc): Linear(in_features=20, out_features=1, bias=True) ## ) ## SimpleRNN( ## (rnn): RNN(1, 20, batch_first=True) ## (fc): Linear(in_features=20, out_features=1, bias=True) ## ) ## SimpleRNN( ## (rnn): RNN(1, 20, batch_first=True) ## (fc): Linear(in_features=20, out_features=1, bias=True) ## ) ## SimpleRNN( ## (rnn): RNN(1, 20, batch_first=True) ## (fc): Linear(in_features=20, out_features=1, bias=True) ## ) ## SimpleRNN( ## (rnn): RNN(1, 20, batch_first=True) ## (fc): Linear(in_features=20, out_features=1, bias=True) ## ) ## SimpleRNN( ## (rnn): RNN(1, 20, batch_first=True) ## (fc): Linear(in_features=20, out_features=1, bias=True) ## ) ## SimpleRNN( ## (rnn): RNN(1, 20, batch_first=True) ## (fc): Linear(in_features=20, out_features=1, bias=True) ## ) ## SimpleRNN( ## (rnn): RNN(1, 20, batch_first=True) ## (fc): Linear(in_features=20, out_features=1, bias=True) ## ) ## SimpleRNN( ## (rnn): RNN(1, 20, batch_first=True) ## (fc): Linear(in_features=20, out_features=1, bias=True) ## ) ## SimpleRNN( ## (rnn): RNN(1, 20, batch_first=True) ## (fc): Linear(in_features=20, out_features=1, bias=True) ## ) ## SimpleRNN( ## (rnn): RNN(1, 20, batch_first=True) ## (fc): Linear(in_features=20, out_features=1, bias=True) ## ) ## SimpleRNN( ## (rnn): RNN(1, 20, batch_first=True) ## (fc): Linear(in_features=20, out_features=1, bias=True) ## ) ## SimpleRNN( ## (rnn): RNN(1, 20, batch_first=True) ## (fc): Linear(in_features=20, out_features=1, bias=True) ## ) ## SimpleRNN( ## (rnn): RNN(1, 20, batch_first=True) ## (fc): Linear(in_features=20, out_features=1, bias=True) ## ) ## SimpleRNN( ## (rnn): RNN(1, 20, batch_first=True) ## (fc): Linear(in_features=20, out_features=1, bias=True) ## ) ## SimpleRNN( ## (rnn): RNN(1, 20, batch_first=True) ## (fc): Linear(in_features=20, out_features=1, bias=True) ## ) ## SimpleRNN( ## (rnn): RNN(1, 20, batch_first=True) ## (fc): Linear(in_features=20, out_features=1, bias=True) ## ) ## SimpleRNN( ## (rnn): RNN(1, 20, batch_first=True) ## (fc): Linear(in_features=20, out_features=1, bias=True) ## ) ## SimpleRNN( ## (rnn): RNN(1, 20, batch_first=True) ## (fc): Linear(in_features=20, out_features=1, bias=True) ## ) ## SimpleRNN( ## (rnn): RNN(1, 20, batch_first=True) ## (fc): Linear(in_features=20, out_features=1, bias=True) ## ) ## SimpleRNN( ## (rnn): RNN(1, 20, batch_first=True) ## (fc): Linear(in_features=20, out_features=1, bias=True) ## ) ## SimpleRNN( ## (rnn): RNN(1, 20, batch_first=True) ## (fc): Linear(in_features=20, out_features=1, bias=True) ## ) ## SimpleRNN( ## (rnn): RNN(1, 20, batch_first=True) ## (fc): Linear(in_features=20, out_features=1, bias=True) ## ) ## SimpleRNN( ## (rnn): RNN(1, 20, batch_first=True) ## (fc): Linear(in_features=20, out_features=1, bias=True) ## ) ## SimpleRNN( ## (rnn): RNN(1, 20, batch_first=True) ## (fc): Linear(in_features=20, out_features=1, bias=True) ## ) ## SimpleRNN( ## (rnn): RNN(1, 20, batch_first=True) ## (fc): Linear(in_features=20, out_features=1, bias=True) ## ) ## SimpleRNN( ## (rnn): RNN(1, 20, batch_first=True) ## (fc): Linear(in_features=20, out_features=1, bias=True) ## ) ## SimpleRNN( ## (rnn): RNN(1, 20, batch_first=True) ## (fc): Linear(in_features=20, out_features=1, bias=True) ## ) ## SimpleRNN( ## (rnn): RNN(1, 20, batch_first=True) ## (fc): Linear(in_features=20, out_features=1, bias=True) ## ) ## SimpleRNN( ## (rnn): RNN(1, 20, batch_first=True) ## (fc): Linear(in_features=20, out_features=1, bias=True) ## ) ## SimpleRNN( ## (rnn): RNN(1, 20, batch_first=True) ## (fc): Linear(in_features=20, out_features=1, bias=True) ## ) ## SimpleRNN( ## (rnn): RNN(1, 20, batch_first=True) ## (fc): Linear(in_features=20, out_features=1, bias=True) ## ) ## SimpleRNN( ## (rnn): RNN(1, 20, batch_first=True) ## (fc): Linear(in_features=20, out_features=1, bias=True) ## ) ## SimpleRNN( ## (rnn): RNN(1, 20, batch_first=True) ## (fc): Linear(in_features=20, out_features=1, bias=True) ## ) ## SimpleRNN( ## (rnn): RNN(1, 20, batch_first=True) ## (fc): Linear(in_features=20, out_features=1, bias=True) ## ) ## SimpleRNN( ## (rnn): RNN(1, 20, batch_first=True) ## (fc): Linear(in_features=20, out_features=1, bias=True) ## ) ## SimpleRNN( ## (rnn): RNN(1, 20, batch_first=True) ## (fc): Linear(in_features=20, out_features=1, bias=True) ## ) ## SimpleRNN( ## (rnn): RNN(1, 20, batch_first=True) ## (fc): Linear(in_features=20, out_features=1, bias=True) ## ) ## SimpleRNN( ## (rnn): RNN(1, 20, batch_first=True) ## (fc): Linear(in_features=20, out_features=1, bias=True) ## ) ## SimpleRNN( ## (rnn): RNN(1, 20, batch_first=True) ## (fc): Linear(in_features=20, out_features=1, bias=True) ## ) ## SimpleRNN( ## (rnn): RNN(1, 20, batch_first=True) ## (fc): Linear(in_features=20, out_features=1, bias=True) ## ) ## SimpleRNN( ## (rnn): RNN(1, 20, batch_first=True) ## (fc): Linear(in_features=20, out_features=1, bias=True) ## ) ## SimpleRNN( ## (rnn): RNN(1, 20, batch_first=True) ## (fc): Linear(in_features=20, out_features=1, bias=True) ## ) ## SimpleRNN( ## (rnn): RNN(1, 20, batch_first=True) ## (fc): Linear(in_features=20, out_features=1, bias=True) ## ) ## SimpleRNN( ## (rnn): RNN(1, 20, batch_first=True) ## (fc): Linear(in_features=20, out_features=1, bias=True) ## ) ## SimpleRNN( ## (rnn): RNN(1, 20, batch_first=True) ## (fc): Linear(in_features=20, out_features=1, bias=True) ## ) ## SimpleRNN( ## (rnn): RNN(1, 20, batch_first=True) ## (fc): Linear(in_features=20, out_features=1, bias=True) ## ) ## SimpleRNN( ## (rnn): RNN(1, 20, batch_first=True) ## (fc): Linear(in_features=20, out_features=1, bias=True) ## ) ## SimpleRNN( ## (rnn): RNN(1, 20, batch_first=True) ## (fc): Linear(in_features=20, out_features=1, bias=True) ## ) ## SimpleRNN( ## (rnn): RNN(1, 20, batch_first=True) ## (fc): Linear(in_features=20, out_features=1, bias=True) ## ) ## SimpleRNN( ## (rnn): RNN(1, 20, batch_first=True) ## (fc): Linear(in_features=20, out_features=1, bias=True) ## ) plt.plot(loss_history) import numpy as np model.eval() ## SimpleRNN( ## (rnn): RNN(1, 20, batch_first=True) ## (fc): Linear(in_features=20, out_features=1, bias=True) ## ) with torch.no_grad(): # shift train predictions for plotting train_plot = np.ones_like(timeseries) * np.nan train_plot[lookback:train_size] = model(X_train)[:, -1, :] # shift test predictions for plotting test_plot = np.ones_like(timeseries) * np.nan test_plot[train_size+lookback:len(timeseries)] = model(X_test)[:, -1, :] # plot plt.plot(timeseries) 
…
